<?xml version="1.0"?>
<net name="LPRNet" version="6" batch="1">
	<layers>
		<layer name="seq_ind" type="Input" precision="FP32" id="0">
			<output>
				<port id="0">
					<dim>88</dim>
					<dim>1</dim>
				</port>
			</output>
		</layer>
		<layer name="data" type="Input" precision="FP32" id="1">
			<output>
				<port id="0">
					<dim>1</dim>
					<dim>3</dim>
					<dim>24</dim>
					<dim>94</dim>
				</port>
			</output>
		</layer>
		<layer name="conv1" type="Convolution" precision="FP32" id="2">
			<data dilations="1,1" group="1" kernel="3,3" output="64" pads_begin="1,1" pads_end="1,1" quantization_level="I8" strides="1,1" />
			<input>
				<port id="0">
					<dim>1</dim>
					<dim>3</dim>
					<dim>24</dim>
					<dim>94</dim>
				</port>
			</input>
			<output>
				<port id="1">
					<dim>1</dim>
					<dim>64</dim>
					<dim>24</dim>
					<dim>94</dim>
				</port>
			</output>
			<blobs>
				<biases offset="0" size="256" />
				<weights offset="256" size="6912" />
			</blobs>
		</layer>
		<layer name="relu_conv1" type="ReLU" precision="FP32" id="3">
			<input>
				<port id="0">
					<dim>1</dim>
					<dim>64</dim>
					<dim>24</dim>
					<dim>94</dim>
				</port>
			</input>
			<output>
				<port id="1">
					<dim>1</dim>
					<dim>64</dim>
					<dim>24</dim>
					<dim>94</dim>
				</port>
			</output>
		</layer>
		<layer name="pool1" type="Pooling" precision="FP32" id="4">
			<data exclude-pad="true" kernel="3,3" pads_begin="0,0" pads_end="0,0" pool-method="max" rounding_type="ceil" strides="1,1" />
			<input>
				<port id="0">
					<dim>1</dim>
					<dim>64</dim>
					<dim>24</dim>
					<dim>94</dim>
				</port>
			</input>
			<output>
				<port id="1">
					<dim>1</dim>
					<dim>64</dim>
					<dim>22</dim>
					<dim>92</dim>
				</port>
			</output>
		</layer>
		<layer name="fire1_small/conv_reduce" type="Convolution" precision="FP32" id="5">
			<data dilations="1,1" group="1" kernel="1,1" output="32" pads_begin="0,0" pads_end="0,0" quantization_level="I8" strides="1,1" />
			<input>
				<port id="0">
					<dim>1</dim>
					<dim>64</dim>
					<dim>22</dim>
					<dim>92</dim>
				</port>
			</input>
			<output>
				<port id="1">
					<dim>1</dim>
					<dim>32</dim>
					<dim>22</dim>
					<dim>92</dim>
				</port>
			</output>
			<blobs>
				<biases offset="7168" size="128" />
				<weights offset="7296" size="8192" />
			</blobs>
		</layer>
		<layer name="fire1_small/relu_conv_reduce" type="ReLU" precision="FP32" id="6">
			<input>
				<port id="0">
					<dim>1</dim>
					<dim>32</dim>
					<dim>22</dim>
					<dim>92</dim>
				</port>
			</input>
			<output>
				<port id="1">
					<dim>1</dim>
					<dim>32</dim>
					<dim>22</dim>
					<dim>92</dim>
				</port>
			</output>
		</layer>
		<layer name="fire1_small/conv_3x1" type="Convolution" precision="FP32" id="7">
			<data dilations="1,1" group="1" kernel="3,1" output="32" pads_begin="1,0" pads_end="1,0" quantization_level="I8" strides="1,1" />
			<input>
				<port id="0">
					<dim>1</dim>
					<dim>32</dim>
					<dim>22</dim>
					<dim>92</dim>
				</port>
			</input>
			<output>
				<port id="1">
					<dim>1</dim>
					<dim>32</dim>
					<dim>22</dim>
					<dim>92</dim>
				</port>
			</output>
			<blobs>
				<biases offset="15488" size="128" />
				<weights offset="15616" size="12288" />
			</blobs>
		</layer>
		<layer name="fire1_small/relu_conv_3x1" type="ReLU" precision="FP32" id="8">
			<input>
				<port id="0">
					<dim>1</dim>
					<dim>32</dim>
					<dim>22</dim>
					<dim>92</dim>
				</port>
			</input>
			<output>
				<port id="1">
					<dim>1</dim>
					<dim>32</dim>
					<dim>22</dim>
					<dim>92</dim>
				</port>
			</output>
		</layer>
		<layer name="fire1_small/conv_1x3" type="Convolution" precision="FP32" id="9">
			<data dilations="1,1" group="1" kernel="1,3" output="32" pads_begin="0,1" pads_end="0,1" quantization_level="I8" strides="1,1" />
			<input>
				<port id="0">
					<dim>1</dim>
					<dim>32</dim>
					<dim>22</dim>
					<dim>92</dim>
				</port>
			</input>
			<output>
				<port id="1">
					<dim>1</dim>
					<dim>32</dim>
					<dim>22</dim>
					<dim>92</dim>
				</port>
			</output>
			<blobs>
				<biases offset="27904" size="128" />
				<weights offset="28032" size="12288" />
			</blobs>
		</layer>
		<layer name="fire1_small/relu_conv_1x3" type="ReLU" precision="FP32" id="10">
			<input>
				<port id="0">
					<dim>1</dim>
					<dim>32</dim>
					<dim>22</dim>
					<dim>92</dim>
				</port>
			</input>
			<output>
				<port id="1">
					<dim>1</dim>
					<dim>32</dim>
					<dim>22</dim>
					<dim>92</dim>
				</port>
			</output>
		</layer>
		<layer name="fire1_small/conv_expand" type="Convolution" precision="FP32" id="11">
			<data dilations="1,1" group="1" kernel="1,1" output="128" pads_begin="0,0" pads_end="0,0" quantization_level="I8" strides="1,1" />
			<input>
				<port id="0">
					<dim>1</dim>
					<dim>32</dim>
					<dim>22</dim>
					<dim>92</dim>
				</port>
			</input>
			<output>
				<port id="1">
					<dim>1</dim>
					<dim>128</dim>
					<dim>22</dim>
					<dim>92</dim>
				</port>
			</output>
			<blobs>
				<biases offset="40320" size="512" />
				<weights offset="40832" size="16384" />
			</blobs>
		</layer>
		<layer name="fire1_small/relu_conv_expand" type="ReLU" precision="FP32" id="12">
			<input>
				<port id="0">
					<dim>1</dim>
					<dim>128</dim>
					<dim>22</dim>
					<dim>92</dim>
				</port>
			</input>
			<output>
				<port id="1">
					<dim>1</dim>
					<dim>128</dim>
					<dim>22</dim>
					<dim>92</dim>
				</port>
			</output>
		</layer>
		<layer name="pool2" type="Pooling" precision="FP32" id="13">
			<data exclude-pad="true" kernel="3,3" pads_begin="0,0" pads_end="0,0" pool-method="max" rounding_type="ceil" strides="2,1" />
			<input>
				<port id="0">
					<dim>1</dim>
					<dim>128</dim>
					<dim>22</dim>
					<dim>92</dim>
				</port>
			</input>
			<output>
				<port id="1">
					<dim>1</dim>
					<dim>128</dim>
					<dim>11</dim>
					<dim>90</dim>
				</port>
			</output>
		</layer>
		<layer name="fire2_small/conv_reduce" type="Convolution" precision="FP32" id="14">
			<data dilations="1,1" group="1" kernel="1,1" output="64" pads_begin="0,0" pads_end="0,0" quantization_level="I8" strides="1,1" />
			<input>
				<port id="0">
					<dim>1</dim>
					<dim>128</dim>
					<dim>11</dim>
					<dim>90</dim>
				</port>
			</input>
			<output>
				<port id="1">
					<dim>1</dim>
					<dim>64</dim>
					<dim>11</dim>
					<dim>90</dim>
				</port>
			</output>
			<blobs>
				<biases offset="57216" size="256" />
				<weights offset="57472" size="32768" />
			</blobs>
		</layer>
		<layer name="fire2_small/relu_conv_reduce" type="ReLU" precision="FP32" id="15">
			<input>
				<port id="0">
					<dim>1</dim>
					<dim>64</dim>
					<dim>11</dim>
					<dim>90</dim>
				</port>
			</input>
			<output>
				<port id="1">
					<dim>1</dim>
					<dim>64</dim>
					<dim>11</dim>
					<dim>90</dim>
				</port>
			</output>
		</layer>
		<layer name="fire2_small/conv_3x1" type="Convolution" precision="FP32" id="16">
			<data dilations="1,1" group="1" kernel="3,1" output="64" pads_begin="1,0" pads_end="1,0" quantization_level="I8" strides="1,1" />
			<input>
				<port id="0">
					<dim>1</dim>
					<dim>64</dim>
					<dim>11</dim>
					<dim>90</dim>
				</port>
			</input>
			<output>
				<port id="1">
					<dim>1</dim>
					<dim>64</dim>
					<dim>11</dim>
					<dim>90</dim>
				</port>
			</output>
			<blobs>
				<biases offset="90240" size="256" />
				<weights offset="90496" size="49152" />
			</blobs>
		</layer>
		<layer name="fire2_small/relu_conv_3x1" type="ReLU" precision="FP32" id="17">
			<input>
				<port id="0">
					<dim>1</dim>
					<dim>64</dim>
					<dim>11</dim>
					<dim>90</dim>
				</port>
			</input>
			<output>
				<port id="1">
					<dim>1</dim>
					<dim>64</dim>
					<dim>11</dim>
					<dim>90</dim>
				</port>
			</output>
		</layer>
		<layer name="fire2_small/conv_1x3" type="Convolution" precision="FP32" id="18">
			<data dilations="1,1" group="1" kernel="1,3" output="64" pads_begin="0,1" pads_end="0,1" quantization_level="I8" strides="1,1" />
			<input>
				<port id="0">
					<dim>1</dim>
					<dim>64</dim>
					<dim>11</dim>
					<dim>90</dim>
				</port>
			</input>
			<output>
				<port id="1">
					<dim>1</dim>
					<dim>64</dim>
					<dim>11</dim>
					<dim>90</dim>
				</port>
			</output>
			<blobs>
				<biases offset="139648" size="256" />
				<weights offset="139904" size="49152" />
			</blobs>
		</layer>
		<layer name="fire2_small/relu_conv_1x3" type="ReLU" precision="FP32" id="19">
			<input>
				<port id="0">
					<dim>1</dim>
					<dim>64</dim>
					<dim>11</dim>
					<dim>90</dim>
				</port>
			</input>
			<output>
				<port id="1">
					<dim>1</dim>
					<dim>64</dim>
					<dim>11</dim>
					<dim>90</dim>
				</port>
			</output>
		</layer>
		<layer name="fire2_small/conv_expand" type="Convolution" precision="FP32" id="20">
			<data dilations="1,1" group="1" kernel="1,1" output="256" pads_begin="0,0" pads_end="0,0" quantization_level="I8" strides="1,1" />
			<input>
				<port id="0">
					<dim>1</dim>
					<dim>64</dim>
					<dim>11</dim>
					<dim>90</dim>
				</port>
			</input>
			<output>
				<port id="1">
					<dim>1</dim>
					<dim>256</dim>
					<dim>11</dim>
					<dim>90</dim>
				</port>
			</output>
			<blobs>
				<biases offset="189056" size="1024" />
				<weights offset="190080" size="65536" />
			</blobs>
		</layer>
		<layer name="fire2_small/relu_conv_expand" type="ReLU" precision="FP32" id="21">
			<input>
				<port id="0">
					<dim>1</dim>
					<dim>256</dim>
					<dim>11</dim>
					<dim>90</dim>
				</port>
			</input>
			<output>
				<port id="1">
					<dim>1</dim>
					<dim>256</dim>
					<dim>11</dim>
					<dim>90</dim>
				</port>
			</output>
		</layer>
		<layer name="fire3_small/conv_reduce" type="Convolution" precision="FP32" id="22">
			<data dilations="1,1" group="1" kernel="1,1" output="64" pads_begin="0,0" pads_end="0,0" quantization_level="I8" strides="1,1" />
			<input>
				<port id="0">
					<dim>1</dim>
					<dim>256</dim>
					<dim>11</dim>
					<dim>90</dim>
				</port>
			</input>
			<output>
				<port id="1">
					<dim>1</dim>
					<dim>64</dim>
					<dim>11</dim>
					<dim>90</dim>
				</port>
			</output>
			<blobs>
				<biases offset="255616" size="256" />
				<weights offset="255872" size="65536" />
			</blobs>
		</layer>
		<layer name="fire3_small/relu_conv_reduce" type="ReLU" precision="FP32" id="23">
			<input>
				<port id="0">
					<dim>1</dim>
					<dim>64</dim>
					<dim>11</dim>
					<dim>90</dim>
				</port>
			</input>
			<output>
				<port id="1">
					<dim>1</dim>
					<dim>64</dim>
					<dim>11</dim>
					<dim>90</dim>
				</port>
			</output>
		</layer>
		<layer name="fire3_small/conv_3x1" type="Convolution" precision="FP32" id="24">
			<data dilations="1,1" group="1" kernel="3,1" output="64" pads_begin="1,0" pads_end="1,0" quantization_level="I8" strides="1,1" />
			<input>
				<port id="0">
					<dim>1</dim>
					<dim>64</dim>
					<dim>11</dim>
					<dim>90</dim>
				</port>
			</input>
			<output>
				<port id="1">
					<dim>1</dim>
					<dim>64</dim>
					<dim>11</dim>
					<dim>90</dim>
				</port>
			</output>
			<blobs>
				<biases offset="321408" size="256" />
				<weights offset="321664" size="49152" />
			</blobs>
		</layer>
		<layer name="fire3_small/relu_conv_3x1" type="ReLU" precision="FP32" id="25">
			<input>
				<port id="0">
					<dim>1</dim>
					<dim>64</dim>
					<dim>11</dim>
					<dim>90</dim>
				</port>
			</input>
			<output>
				<port id="1">
					<dim>1</dim>
					<dim>64</dim>
					<dim>11</dim>
					<dim>90</dim>
				</port>
			</output>
		</layer>
		<layer name="fire3_small/conv_1x3" type="Convolution" precision="FP32" id="26">
			<data dilations="1,1" group="1" kernel="1,3" output="64" pads_begin="0,1" pads_end="0,1" quantization_level="I8" strides="1,1" />
			<input>
				<port id="0">
					<dim>1</dim>
					<dim>64</dim>
					<dim>11</dim>
					<dim>90</dim>
				</port>
			</input>
			<output>
				<port id="1">
					<dim>1</dim>
					<dim>64</dim>
					<dim>11</dim>
					<dim>90</dim>
				</port>
			</output>
			<blobs>
				<biases offset="370816" size="256" />
				<weights offset="371072" size="49152" />
			</blobs>
		</layer>
		<layer name="fire3_small/relu_conv_1x3" type="ReLU" precision="FP32" id="27">
			<input>
				<port id="0">
					<dim>1</dim>
					<dim>64</dim>
					<dim>11</dim>
					<dim>90</dim>
				</port>
			</input>
			<output>
				<port id="1">
					<dim>1</dim>
					<dim>64</dim>
					<dim>11</dim>
					<dim>90</dim>
				</port>
			</output>
		</layer>
		<layer name="fire3_small/conv_expand" type="Convolution" precision="FP32" id="28">
			<data dilations="1,1" group="1" kernel="1,1" output="256" pads_begin="0,0" pads_end="0,0" quantization_level="I8" strides="1,1" />
			<input>
				<port id="0">
					<dim>1</dim>
					<dim>64</dim>
					<dim>11</dim>
					<dim>90</dim>
				</port>
			</input>
			<output>
				<port id="1">
					<dim>1</dim>
					<dim>256</dim>
					<dim>11</dim>
					<dim>90</dim>
				</port>
			</output>
			<blobs>
				<biases offset="420224" size="1024" />
				<weights offset="421248" size="65536" />
			</blobs>
		</layer>
		<layer name="fire3_small/relu_conv_expand" type="ReLU" precision="FP32" id="29">
			<input>
				<port id="0">
					<dim>1</dim>
					<dim>256</dim>
					<dim>11</dim>
					<dim>90</dim>
				</port>
			</input>
			<output>
				<port id="1">
					<dim>1</dim>
					<dim>256</dim>
					<dim>11</dim>
					<dim>90</dim>
				</port>
			</output>
		</layer>
		<layer name="pool3" type="Pooling" precision="FP32" id="30">
			<data exclude-pad="true" kernel="3,3" pads_begin="0,0" pads_end="0,0" pool-method="max" rounding_type="ceil" strides="2,1" />
			<input>
				<port id="0">
					<dim>1</dim>
					<dim>256</dim>
					<dim>11</dim>
					<dim>90</dim>
				</port>
			</input>
			<output>
				<port id="1">
					<dim>1</dim>
					<dim>256</dim>
					<dim>5</dim>
					<dim>88</dim>
				</port>
			</output>
		</layer>
		<layer name="conv2" type="Convolution" precision="FP32" id="31">
			<data dilations="1,1" group="1" kernel="5,1" output="128" pads_begin="0,0" pads_end="0,0" quantization_level="I8" strides="1,1" />
			<input>
				<port id="0">
					<dim>1</dim>
					<dim>256</dim>
					<dim>5</dim>
					<dim>88</dim>
				</port>
			</input>
			<output>
				<port id="1">
					<dim>1</dim>
					<dim>128</dim>
					<dim>1</dim>
					<dim>88</dim>
				</port>
			</output>
			<blobs>
				<biases offset="486784" size="512" />
				<weights offset="487296" size="655360" />
			</blobs>
		</layer>
		<layer name="relu_conv2" type="ReLU" precision="FP32" id="32">
			<input>
				<port id="0">
					<dim>1</dim>
					<dim>128</dim>
					<dim>1</dim>
					<dim>88</dim>
				</port>
			</input>
			<output>
				<port id="1">
					<dim>1</dim>
					<dim>128</dim>
					<dim>1</dim>
					<dim>88</dim>
				</port>
			</output>
		</layer>
		<layer name="conv3_w" type="Convolution" precision="FP32" id="33">
			<data dilations="1,1" group="1" kernel="1,13" output="71" pads_begin="0,6" pads_end="0,6" quantization_level="I8" strides="1,1" />
			<input>
				<port id="0">
					<dim>1</dim>
					<dim>128</dim>
					<dim>1</dim>
					<dim>88</dim>
				</port>
			</input>
			<output>
				<port id="1">
					<dim>1</dim>
					<dim>71</dim>
					<dim>1</dim>
					<dim>88</dim>
				</port>
			</output>
			<blobs>
				<biases offset="1142656" size="284" />
				<weights offset="1142940" size="472576" />
			</blobs>
		</layer>
		<layer name="relu_conv3_w" type="ReLU" precision="FP32" id="34">
			<input>
				<port id="0">
					<dim>1</dim>
					<dim>71</dim>
					<dim>1</dim>
					<dim>88</dim>
				</port>
			</input>
			<output>
				<port id="1">
					<dim>1</dim>
					<dim>71</dim>
					<dim>1</dim>
					<dim>88</dim>
				</port>
			</output>
		</layer>
		<layer name="pattern" type="FullyConnected" precision="FP32" id="35">
			<data out-size="128" quantization_level="I8" />
			<input>
				<port id="0">
					<dim>1</dim>
					<dim>71</dim>
					<dim>1</dim>
					<dim>88</dim>
				</port>
			</input>
			<output>
				<port id="1">
					<dim>1</dim>
					<dim>128</dim>
				</port>
			</output>
			<blobs>
				<biases offset="1615516" size="512" />
				<weights offset="1616028" size="3198976" />
			</blobs>
		</layer>
		<layer name="46/Output_0/Data__const" type="Const" precision="I32" id="36">
			<output>
				<port id="0">
					<dim>4</dim>
				</port>
			</output>
			<blobs>
				<custom offset="4815004" size="16" />
			</blobs>
		</layer>
		<layer name="reshape" type="Reshape" precision="FP32" id="37">
			<data axis="0" dim="" num_axes="-1" />
			<input>
				<port id="0">
					<dim>1</dim>
					<dim>128</dim>
				</port>
				<port id="1">
					<dim>4</dim>
				</port>
			</input>
			<output>
				<port id="2">
					<dim>1</dim>
					<dim>128</dim>
					<dim>1</dim>
					<dim>1</dim>
				</port>
			</output>
		</layer>
		<layer name="tile" type="Tile" precision="FP32" id="38">
			<data axis="3" tiles="88" />
			<input>
				<port id="0">
					<dim>1</dim>
					<dim>128</dim>
					<dim>1</dim>
					<dim>1</dim>
				</port>
			</input>
			<output>
				<port id="1">
					<dim>1</dim>
					<dim>128</dim>
					<dim>1</dim>
					<dim>88</dim>
				</port>
			</output>
		</layer>
		<layer name="concat" type="Concat" precision="FP32" id="39">
			<data axis="1" />
			<input>
				<port id="0">
					<dim>1</dim>
					<dim>71</dim>
					<dim>1</dim>
					<dim>88</dim>
				</port>
				<port id="1">
					<dim>1</dim>
					<dim>128</dim>
					<dim>1</dim>
					<dim>88</dim>
				</port>
			</input>
			<output>
				<port id="2">
					<dim>1</dim>
					<dim>199</dim>
					<dim>1</dim>
					<dim>88</dim>
				</port>
			</output>
		</layer>
		<layer name="result" type="Convolution" precision="FP32" id="40">
			<data dilations="1,1" group="1" kernel="1,1" output="71" pads_begin="0,0" pads_end="0,0" quantization_level="FP32" strides="1,1" />
			<input>
				<port id="0">
					<dim>1</dim>
					<dim>199</dim>
					<dim>1</dim>
					<dim>88</dim>
				</port>
			</input>
			<output>
				<port id="1">
					<dim>1</dim>
					<dim>71</dim>
					<dim>1</dim>
					<dim>88</dim>
				</port>
			</output>
			<blobs>
				<biases offset="4815020" size="284" />
				<weights offset="4815304" size="56516" />
			</blobs>
		</layer>
		<layer name="p_result" type="Permute" precision="FP32" id="41">
			<data order="3,0,1,2" />
			<input>
				<port id="0">
					<dim>1</dim>
					<dim>71</dim>
					<dim>1</dim>
					<dim>88</dim>
				</port>
			</input>
			<output>
				<port id="1">
					<dim>88</dim>
					<dim>1</dim>
					<dim>71</dim>
					<dim>1</dim>
				</port>
			</output>
		</layer>
		<layer name="45/Output_0/Data__const" type="Const" precision="I32" id="42">
			<output>
				<port id="0">
					<dim>3</dim>
				</port>
			</output>
			<blobs>
				<custom offset="4871820" size="12" />
			</blobs>
		</layer>
		<layer name="reshape2" type="Reshape" precision="FP32" id="43">
			<data axis="0" dim="" num_axes="-1" />
			<input>
				<port id="0">
					<dim>88</dim>
					<dim>1</dim>
					<dim>71</dim>
					<dim>1</dim>
				</port>
				<port id="1">
					<dim>3</dim>
				</port>
			</input>
			<output>
				<port id="2">
					<dim>88</dim>
					<dim>1</dim>
					<dim>71</dim>
				</port>
			</output>
		</layer>
		<layer name="decode" type="CTCGreedyDecoder" precision="FP32" id="44">
			<data ctc_merge_repeated="1" />
			<input>
				<port id="0">
					<dim>88</dim>
					<dim>1</dim>
					<dim>71</dim>
				</port>
				<port id="1">
					<dim>88</dim>
					<dim>1</dim>
				</port>
			</input>
			<output>
				<port id="2">
					<dim>1</dim>
					<dim>88</dim>
					<dim>1</dim>
					<dim>1</dim>
				</port>
			</output>
		</layer>
	</layers>
	<edges>
		<edge from-layer="0" from-port="0" to-layer="44" to-port="1" />
		<edge from-layer="1" from-port="0" to-layer="2" to-port="0" />
		<edge from-layer="2" from-port="1" to-layer="3" to-port="0" />
		<edge from-layer="3" from-port="1" to-layer="4" to-port="0" />
		<edge from-layer="4" from-port="1" to-layer="5" to-port="0" />
		<edge from-layer="5" from-port="1" to-layer="6" to-port="0" />
		<edge from-layer="6" from-port="1" to-layer="7" to-port="0" />
		<edge from-layer="7" from-port="1" to-layer="8" to-port="0" />
		<edge from-layer="8" from-port="1" to-layer="9" to-port="0" />
		<edge from-layer="9" from-port="1" to-layer="10" to-port="0" />
		<edge from-layer="10" from-port="1" to-layer="11" to-port="0" />
		<edge from-layer="11" from-port="1" to-layer="12" to-port="0" />
		<edge from-layer="12" from-port="1" to-layer="13" to-port="0" />
		<edge from-layer="13" from-port="1" to-layer="14" to-port="0" />
		<edge from-layer="14" from-port="1" to-layer="15" to-port="0" />
		<edge from-layer="15" from-port="1" to-layer="16" to-port="0" />
		<edge from-layer="16" from-port="1" to-layer="17" to-port="0" />
		<edge from-layer="17" from-port="1" to-layer="18" to-port="0" />
		<edge from-layer="18" from-port="1" to-layer="19" to-port="0" />
		<edge from-layer="19" from-port="1" to-layer="20" to-port="0" />
		<edge from-layer="20" from-port="1" to-layer="21" to-port="0" />
		<edge from-layer="21" from-port="1" to-layer="22" to-port="0" />
		<edge from-layer="22" from-port="1" to-layer="23" to-port="0" />
		<edge from-layer="23" from-port="1" to-layer="24" to-port="0" />
		<edge from-layer="24" from-port="1" to-layer="25" to-port="0" />
		<edge from-layer="25" from-port="1" to-layer="26" to-port="0" />
		<edge from-layer="26" from-port="1" to-layer="27" to-port="0" />
		<edge from-layer="27" from-port="1" to-layer="28" to-port="0" />
		<edge from-layer="28" from-port="1" to-layer="29" to-port="0" />
		<edge from-layer="29" from-port="1" to-layer="30" to-port="0" />
		<edge from-layer="30" from-port="1" to-layer="31" to-port="0" />
		<edge from-layer="31" from-port="1" to-layer="32" to-port="0" />
		<edge from-layer="32" from-port="1" to-layer="33" to-port="0" />
		<edge from-layer="33" from-port="1" to-layer="34" to-port="0" />
		<edge from-layer="34" from-port="1" to-layer="39" to-port="0" />
		<edge from-layer="34" from-port="1" to-layer="35" to-port="0" />
		<edge from-layer="35" from-port="1" to-layer="37" to-port="0" />
		<edge from-layer="36" from-port="0" to-layer="37" to-port="1" />
		<edge from-layer="37" from-port="2" to-layer="38" to-port="0" />
		<edge from-layer="38" from-port="1" to-layer="39" to-port="1" />
		<edge from-layer="39" from-port="2" to-layer="40" to-port="0" />
		<edge from-layer="40" from-port="1" to-layer="41" to-port="0" />
		<edge from-layer="41" from-port="1" to-layer="43" to-port="0" />
		<edge from-layer="42" from-port="0" to-layer="43" to-port="1" />
		<edge from-layer="43" from-port="2" to-layer="44" to-port="0" />
	</edges>
	<statistics>
		<layer>
			<name>concat</name>
			<min>… -2.527322</min>
			<max>… 1.341905</max>
		</layer>
		<layer>
			<name>conv1</name>
			<min>… -4.853895</min>
			<max>… 8.931138</max>
		</layer>
		<layer>
			<name>conv2</name>
			<min>… -1.530979</min>
			<max>… 1.916839</max>
		</layer>
		<layer>
			<name>conv3_w</name>
			<min>… -4.773044</min>
			<max>… 0.828447</max>
		</layer>
		<layer>
			<name>data</name>
			<min>0.000000, 0.000000, 0.000000</min>
			<max>255.000000, 255.000000, 255.000000</max>
		</layer>
		<layer>
			<name>decode</name>
			<min>… -1.000000</min>
			<max>… -1.000000</max>
		</layer>
		<layer>
			<name>fire1_small/conv_1x3</name>
			<min>… -7.666148</min>
			<max>… 8.426749</max>
		</layer>
		<layer>
			<name>fire1_small/conv_3x1</name>
			<min>… -6.219090</min>
			<max>… 3.902367</max>
		</layer>
		<layer>
			<name>fire1_small/conv_expand</name>
			<min>… -8.511548</min>
			<max>… 3.875231</max>
		</layer>
		<layer>
			<name>fire1_small/conv_reduce</name>
			<min>… -7.913477</min>
			<max>… 6.768880</max>
		</layer>
		<layer>
			<name>fire1_small/relu_conv_1x3</name>
			<min>… -0.000000</min>
			<max>… 8.426749</max>
		</layer>
		<layer>
			<name>fire1_small/relu_conv_3x1</name>
			<min>… -0.000000</min>
			<max>… 3.902367</max>
		</layer>
		<layer>
			<name>fire1_small/relu_conv_expand</name>
			<min>… -0.000000</min>
			<max>… 3.875231</max>
		</layer>
		<layer>
			<name>fire1_small/relu_conv_reduce</name>
			<min>… -0.000000</min>
			<max>… 6.768880</max>
		</layer>
		<layer>
			<name>fire2_small/conv_1x3</name>
			<min>… -5.744180</min>
			<max>… 6.527787</max>
		</layer>
		<layer>
			<name>fire2_small/conv_3x1</name>
			<min>… -6.248891</min>
			<max>… 4.326928</max>
		</layer>
		<layer>
			<name>fire2_small/conv_expand</name>
			<min>… -8.531182</min>
			<max>… 4.758331</max>
		</layer>
		<layer>
			<name>fire2_small/conv_reduce</name>
			<min>… -5.309486</min>
			<max>… 5.186360</max>
		</layer>
		<layer>
			<name>fire2_small/relu_conv_1x3</name>
			<min>… -0.000000</min>
			<max>… 6.527787</max>
		</layer>
		<layer>
			<name>fire2_small/relu_conv_3x1</name>
			<min>… -0.000000</min>
			<max>… 4.326928</max>
		</layer>
		<layer>
			<name>fire2_small/relu_conv_expand</name>
			<min>… -0.000000</min>
			<max>… 4.758331</max>
		</layer>
		<layer>
			<name>fire2_small/relu_conv_reduce</name>
			<min>… -0.000000</min>
			<max>… 5.186360</max>
		</layer>
		<layer>
			<name>fire3_small/conv_1x3</name>
			<min>… -4.724825</min>
			<max>… 5.416894</max>
		</layer>
		<layer>
			<name>fire3_small/conv_3x1</name>
			<min>… -5.755841</min>
			<max>… 4.782575</max>
		</layer>
		<layer>
			<name>fire3_small/conv_expand</name>
			<min>… -5.972904</min>
			<max>… 3.513887</max>
		</layer>
		<layer>
			<name>fire3_small/conv_reduce</name>
			<min>… -6.200572</min>
			<max>… 5.966476</max>
		</layer>
		<layer>
			<name>fire3_small/relu_conv_1x3</name>
			<min>… -0.000000</min>
			<max>… 5.416894</max>
		</layer>
		<layer>
			<name>fire3_small/relu_conv_3x1</name>
			<min>… -0.000000</min>
			<max>… 4.782575</max>
		</layer>
		<layer>
			<name>fire3_small/relu_conv_expand</name>
			<min>… -0.000000</min>
			<max>… 3.513887</max>
		</layer>
		<layer>
			<name>fire3_small/relu_conv_reduce</name>
			<min>… -0.000000</min>
			<max>… 5.966476</max>
		</layer>
		<layer>
			<name>p_result</name>
			<min>-41.397449</min>
			<max>36.036789</max>
		</layer>
		<layer>
			<name>pattern</name>
			<min>… -2.527322</min>
			<max>… 1.341905</max>
		</layer>
		<layer>
			<name>pool1</name>
			<min>… -0.000000</min>
			<max>… 8.931138</max>
		</layer>
		<layer>
			<name>pool2</name>
			<min>… -0.000000</min>
			<max>… 3.875231</max>
		</layer>
		<layer>
			<name>pool3</name>
			<min>… -0.000000</min>
			<max>… 3.513887</max>
		</layer>
		<layer>
			<name>relu_conv1</name>
			<min>… -0.000000</min>
			<max>… 8.931138</max>
		</layer>
		<layer>
			<name>relu_conv2</name>
			<min>… -0.000000</min>
			<max>… 1.916839</max>
		</layer>
		<layer>
			<name>relu_conv3_w</name>
			<min>… -0.000000</min>
			<max>… 0.828447</max>
		</layer>
		<layer>
			<name>reshape</name>
			<min>… -2.527322</min>
			<max>… 1.341905</max>
		</layer>
		<layer>
			<name>reshape2</name>
			<min>… -34.406883</min>
			<max>… 21.991598</max>
		</layer>
		<layer>
			<name>result</name>
			<min>… -37.401516</min>
			<max>… 45.684624</max>
		</layer>
		<layer>
			<name>seq_ind</name>
			<min>1.000000</min>
			<max>1.000000</max>
		</layer>
		<layer>
			<name>tile</name>
			<min>… -2.527322</min>
			<max>… 1.341905</max>
		</layer>
	</statistics>
</net>
