<?xml version="1.0"?>
<net name="vehicle-license-plate-detection-barrier-0106" version="6" batch="1">
	<layers>
		<layer name="SSD/concat_reshape_softmax/mbox_loc_final/shape/Output_0/Data__const" type="Const" precision="I32" id="0">
			<output>
				<port id="0">
					<dim>3</dim>
				</port>
			</output>
			<blobs>
				<custom offset="0" size="12" />
			</blobs>
		</layer>
		<layer name="SSD/concat_reshape_softmax/mbox_conf_logits/shape/Output_0/Data__const" type="Const" precision="I32" id="1">
			<output>
				<port id="0">
					<dim>3</dim>
				</port>
			</output>
			<blobs>
				<custom offset="12" size="12" />
			</blobs>
		</layer>
		<layer name="SSD/concat_reshape_softmax/concat/Output_0/Data__const" type="Const" precision="I32" id="2">
			<output>
				<port id="0">
					<dim>2</dim>
				</port>
			</output>
			<blobs>
				<custom offset="24" size="8" />
			</blobs>
		</layer>
		<layer name="SSD/concat_reshape_softmax/Shape/Output_0/Data__const" type="Const" precision="I32" id="3">
			<output>
				<port id="0">
					<dim>3</dim>
				</port>
			</output>
			<blobs>
				<custom offset="32" size="12" />
			</blobs>
		</layer>
		<layer name="Placeholder" type="Input" precision="FP32" id="4">
			<output>
				<port id="0">
					<dim>1</dim>
					<dim>3</dim>
					<dim>300</dim>
					<dim>300</dim>
				</port>
			</output>
		</layer>
		<layer name="Mul_/Fused_Mul_/FusedScaleShift_" type="ScaleShift" precision="FP32" id="5">
			<data broadcast="0" />
			<input>
				<port id="0">
					<dim>1</dim>
					<dim>3</dim>
					<dim>300</dim>
					<dim>300</dim>
				</port>
			</input>
			<output>
				<port id="1">
					<dim>1</dim>
					<dim>3</dim>
					<dim>300</dim>
					<dim>300</dim>
				</port>
			</output>
			<blobs>
				<biases offset="44" size="12" />
				<weights offset="56" size="12" />
			</blobs>
		</layer>
		<layer name="MobilenetV2/Conv/Conv2D" type="Convolution" precision="FP32" id="6">
			<data auto_pad="same_upper" dilations="1,1" group="1" kernel="3,3" output="16" pads_begin="0,0" pads_end="1,1" quantization_level="FP32" strides="2,2" />
			<input>
				<port id="0">
					<dim>1</dim>
					<dim>3</dim>
					<dim>300</dim>
					<dim>300</dim>
				</port>
			</input>
			<output>
				<port id="1">
					<dim>1</dim>
					<dim>16</dim>
					<dim>150</dim>
					<dim>150</dim>
				</port>
			</output>
			<blobs>
				<biases offset="68" size="64" />
				<weights offset="132" size="1728" />
			</blobs>
		</layer>
		<layer name="MobilenetV2/Conv/Relu6" type="Clamp" precision="FP32" id="7">
			<data max="6.000000" min="0.000000" />
			<input>
				<port id="0">
					<dim>1</dim>
					<dim>16</dim>
					<dim>150</dim>
					<dim>150</dim>
				</port>
			</input>
			<output>
				<port id="1">
					<dim>1</dim>
					<dim>16</dim>
					<dim>150</dim>
					<dim>150</dim>
				</port>
			</output>
		</layer>
		<layer name="MobilenetV2/expanded_conv/depthwise/depthwise" type="Convolution" precision="FP32" id="8">
			<data auto_pad="same_upper" dilations="1,1" group="16" kernel="3,3" output="16" pads_begin="1,1" pads_end="1,1" quantization_level="FP32" strides="1,1" />
			<input>
				<port id="0">
					<dim>1</dim>
					<dim>16</dim>
					<dim>150</dim>
					<dim>150</dim>
				</port>
			</input>
			<output>
				<port id="1">
					<dim>1</dim>
					<dim>16</dim>
					<dim>150</dim>
					<dim>150</dim>
				</port>
			</output>
			<blobs>
				<biases offset="1860" size="64" />
				<weights offset="1924" size="576" />
			</blobs>
		</layer>
		<layer name="MobilenetV2/expanded_conv/depthwise/Relu6" type="Clamp" precision="FP32" id="9">
			<data max="6.000000" min="0.000000" />
			<input>
				<port id="0">
					<dim>1</dim>
					<dim>16</dim>
					<dim>150</dim>
					<dim>150</dim>
				</port>
			</input>
			<output>
				<port id="1">
					<dim>1</dim>
					<dim>16</dim>
					<dim>150</dim>
					<dim>150</dim>
				</port>
			</output>
		</layer>
		<layer name="MobilenetV2/expanded_conv/project/Conv2D" type="Convolution" precision="FP32" id="10">
			<data auto_pad="same_upper" dilations="1,1" group="1" kernel="1,1" output="16" pads_begin="0,0" pads_end="0,0" quantization_level="I8" strides="1,1" />
			<input>
				<port id="0">
					<dim>1</dim>
					<dim>16</dim>
					<dim>150</dim>
					<dim>150</dim>
				</port>
			</input>
			<output>
				<port id="1">
					<dim>1</dim>
					<dim>16</dim>
					<dim>150</dim>
					<dim>150</dim>
				</port>
			</output>
			<blobs>
				<biases offset="2500" size="64" />
				<weights offset="2564" size="1024" />
			</blobs>
		</layer>
		<layer name="MobilenetV2/expanded_conv/add" type="Eltwise" precision="FP32" id="11">
			<data operation="sum" />
			<input>
				<port id="0">
					<dim>1</dim>
					<dim>16</dim>
					<dim>150</dim>
					<dim>150</dim>
				</port>
				<port id="1">
					<dim>1</dim>
					<dim>16</dim>
					<dim>150</dim>
					<dim>150</dim>
				</port>
			</input>
			<output>
				<port id="2">
					<dim>1</dim>
					<dim>16</dim>
					<dim>150</dim>
					<dim>150</dim>
				</port>
			</output>
		</layer>
		<layer name="MobilenetV2/expanded_conv_1/expand/Conv2D" type="Convolution" precision="FP32" id="12">
			<data auto_pad="same_upper" dilations="1,1" group="1" kernel="1,1" output="96" pads_begin="0,0" pads_end="0,0" quantization_level="I8" strides="1,1" />
			<input>
				<port id="0">
					<dim>1</dim>
					<dim>16</dim>
					<dim>150</dim>
					<dim>150</dim>
				</port>
			</input>
			<output>
				<port id="1">
					<dim>1</dim>
					<dim>96</dim>
					<dim>150</dim>
					<dim>150</dim>
				</port>
			</output>
			<blobs>
				<biases offset="3588" size="384" />
				<weights offset="3972" size="6144" />
			</blobs>
		</layer>
		<layer name="MobilenetV2/expanded_conv_1/expand/Relu6" type="Clamp" precision="FP32" id="13">
			<data max="6.000000" min="0.000000" />
			<input>
				<port id="0">
					<dim>1</dim>
					<dim>96</dim>
					<dim>150</dim>
					<dim>150</dim>
				</port>
			</input>
			<output>
				<port id="1">
					<dim>1</dim>
					<dim>96</dim>
					<dim>150</dim>
					<dim>150</dim>
				</port>
			</output>
		</layer>
		<layer name="MobilenetV2/expanded_conv_1/depthwise/depthwise" type="Convolution" precision="FP32" id="14">
			<data auto_pad="same_upper" dilations="1,1" group="96" kernel="3,3" output="96" pads_begin="0,0" pads_end="1,1" quantization_level="I8" strides="2,2" />
			<input>
				<port id="0">
					<dim>1</dim>
					<dim>96</dim>
					<dim>150</dim>
					<dim>150</dim>
				</port>
			</input>
			<output>
				<port id="1">
					<dim>1</dim>
					<dim>96</dim>
					<dim>75</dim>
					<dim>75</dim>
				</port>
			</output>
			<blobs>
				<biases offset="10116" size="384" />
				<weights offset="10500" size="3456" />
			</blobs>
		</layer>
		<layer name="MobilenetV2/expanded_conv_1/depthwise/Relu6" type="Clamp" precision="FP32" id="15">
			<data max="6.000000" min="0.000000" />
			<input>
				<port id="0">
					<dim>1</dim>
					<dim>96</dim>
					<dim>75</dim>
					<dim>75</dim>
				</port>
			</input>
			<output>
				<port id="1">
					<dim>1</dim>
					<dim>96</dim>
					<dim>75</dim>
					<dim>75</dim>
				</port>
			</output>
		</layer>
		<layer name="MobilenetV2/expanded_conv_1/project/Conv2D" type="Convolution" precision="FP32" id="16">
			<data auto_pad="same_upper" dilations="1,1" group="1" kernel="1,1" output="16" pads_begin="0,0" pads_end="0,0" quantization_level="I8" strides="1,1" />
			<input>
				<port id="0">
					<dim>1</dim>
					<dim>96</dim>
					<dim>75</dim>
					<dim>75</dim>
				</port>
			</input>
			<output>
				<port id="1">
					<dim>1</dim>
					<dim>16</dim>
					<dim>75</dim>
					<dim>75</dim>
				</port>
			</output>
			<blobs>
				<biases offset="13956" size="64" />
				<weights offset="14020" size="6144" />
			</blobs>
		</layer>
		<layer name="MobilenetV2/expanded_conv_2/expand/Conv2D" type="Convolution" precision="FP32" id="17">
			<data auto_pad="same_upper" dilations="1,1" group="1" kernel="1,1" output="96" pads_begin="0,0" pads_end="0,0" quantization_level="I8" strides="1,1" />
			<input>
				<port id="0">
					<dim>1</dim>
					<dim>16</dim>
					<dim>75</dim>
					<dim>75</dim>
				</port>
			</input>
			<output>
				<port id="1">
					<dim>1</dim>
					<dim>96</dim>
					<dim>75</dim>
					<dim>75</dim>
				</port>
			</output>
			<blobs>
				<biases offset="20164" size="384" />
				<weights offset="20548" size="6144" />
			</blobs>
		</layer>
		<layer name="MobilenetV2/expanded_conv_2/expand/Relu6" type="Clamp" precision="FP32" id="18">
			<data max="6.000000" min="0.000000" />
			<input>
				<port id="0">
					<dim>1</dim>
					<dim>96</dim>
					<dim>75</dim>
					<dim>75</dim>
				</port>
			</input>
			<output>
				<port id="1">
					<dim>1</dim>
					<dim>96</dim>
					<dim>75</dim>
					<dim>75</dim>
				</port>
			</output>
		</layer>
		<layer name="MobilenetV2/expanded_conv_2/depthwise/depthwise" type="Convolution" precision="FP32" id="19">
			<data auto_pad="same_upper" dilations="1,1" group="96" kernel="3,3" output="96" pads_begin="1,1" pads_end="1,1" quantization_level="I8" strides="1,1" />
			<input>
				<port id="0">
					<dim>1</dim>
					<dim>96</dim>
					<dim>75</dim>
					<dim>75</dim>
				</port>
			</input>
			<output>
				<port id="1">
					<dim>1</dim>
					<dim>96</dim>
					<dim>75</dim>
					<dim>75</dim>
				</port>
			</output>
			<blobs>
				<biases offset="26692" size="384" />
				<weights offset="27076" size="3456" />
			</blobs>
		</layer>
		<layer name="MobilenetV2/expanded_conv_2/depthwise/Relu6" type="Clamp" precision="FP32" id="20">
			<data max="6.000000" min="0.000000" />
			<input>
				<port id="0">
					<dim>1</dim>
					<dim>96</dim>
					<dim>75</dim>
					<dim>75</dim>
				</port>
			</input>
			<output>
				<port id="1">
					<dim>1</dim>
					<dim>96</dim>
					<dim>75</dim>
					<dim>75</dim>
				</port>
			</output>
		</layer>
		<layer name="MobilenetV2/expanded_conv_2/project/Conv2D" type="Convolution" precision="FP32" id="21">
			<data auto_pad="same_upper" dilations="1,1" group="1" kernel="1,1" output="16" pads_begin="0,0" pads_end="0,0" quantization_level="I8" strides="1,1" />
			<input>
				<port id="0">
					<dim>1</dim>
					<dim>96</dim>
					<dim>75</dim>
					<dim>75</dim>
				</port>
			</input>
			<output>
				<port id="1">
					<dim>1</dim>
					<dim>16</dim>
					<dim>75</dim>
					<dim>75</dim>
				</port>
			</output>
			<blobs>
				<biases offset="30532" size="64" />
				<weights offset="30596" size="6144" />
			</blobs>
		</layer>
		<layer name="MobilenetV2/expanded_conv_2/add" type="Eltwise" precision="FP32" id="22">
			<data operation="sum" />
			<input>
				<port id="0">
					<dim>1</dim>
					<dim>16</dim>
					<dim>75</dim>
					<dim>75</dim>
				</port>
				<port id="1">
					<dim>1</dim>
					<dim>16</dim>
					<dim>75</dim>
					<dim>75</dim>
				</port>
			</input>
			<output>
				<port id="2">
					<dim>1</dim>
					<dim>16</dim>
					<dim>75</dim>
					<dim>75</dim>
				</port>
			</output>
		</layer>
		<layer name="MobilenetV2/expanded_conv_3/expand/Conv2D" type="Convolution" precision="FP32" id="23">
			<data auto_pad="same_upper" dilations="1,1" group="1" kernel="1,1" output="96" pads_begin="0,0" pads_end="0,0" quantization_level="I8" strides="1,1" />
			<input>
				<port id="0">
					<dim>1</dim>
					<dim>16</dim>
					<dim>75</dim>
					<dim>75</dim>
				</port>
			</input>
			<output>
				<port id="1">
					<dim>1</dim>
					<dim>96</dim>
					<dim>75</dim>
					<dim>75</dim>
				</port>
			</output>
			<blobs>
				<biases offset="36740" size="384" />
				<weights offset="37124" size="6144" />
			</blobs>
		</layer>
		<layer name="MobilenetV2/expanded_conv_3/expand/Relu6" type="Clamp" precision="FP32" id="24">
			<data max="6.000000" min="0.000000" />
			<input>
				<port id="0">
					<dim>1</dim>
					<dim>96</dim>
					<dim>75</dim>
					<dim>75</dim>
				</port>
			</input>
			<output>
				<port id="1">
					<dim>1</dim>
					<dim>96</dim>
					<dim>75</dim>
					<dim>75</dim>
				</port>
			</output>
		</layer>
		<layer name="MobilenetV2/expanded_conv_3/depthwise/depthwise" type="Convolution" precision="FP32" id="25">
			<data auto_pad="same_upper" dilations="1,1" group="96" kernel="3,3" output="96" pads_begin="1,1" pads_end="1,1" quantization_level="I8" strides="2,2" />
			<input>
				<port id="0">
					<dim>1</dim>
					<dim>96</dim>
					<dim>75</dim>
					<dim>75</dim>
				</port>
			</input>
			<output>
				<port id="1">
					<dim>1</dim>
					<dim>96</dim>
					<dim>38</dim>
					<dim>38</dim>
				</port>
			</output>
			<blobs>
				<biases offset="43268" size="384" />
				<weights offset="43652" size="3456" />
			</blobs>
		</layer>
		<layer name="MobilenetV2/expanded_conv_3/depthwise/Relu6" type="Clamp" precision="FP32" id="26">
			<data max="6.000000" min="0.000000" />
			<input>
				<port id="0">
					<dim>1</dim>
					<dim>96</dim>
					<dim>38</dim>
					<dim>38</dim>
				</port>
			</input>
			<output>
				<port id="1">
					<dim>1</dim>
					<dim>96</dim>
					<dim>38</dim>
					<dim>38</dim>
				</port>
			</output>
		</layer>
		<layer name="MobilenetV2/expanded_conv_3/project/Conv2D" type="Convolution" precision="FP32" id="27">
			<data auto_pad="same_upper" dilations="1,1" group="1" kernel="1,1" output="16" pads_begin="0,0" pads_end="0,0" quantization_level="I8" strides="1,1" />
			<input>
				<port id="0">
					<dim>1</dim>
					<dim>96</dim>
					<dim>38</dim>
					<dim>38</dim>
				</port>
			</input>
			<output>
				<port id="1">
					<dim>1</dim>
					<dim>16</dim>
					<dim>38</dim>
					<dim>38</dim>
				</port>
			</output>
			<blobs>
				<biases offset="47108" size="64" />
				<weights offset="47172" size="6144" />
			</blobs>
		</layer>
		<layer name="MobilenetV2/expanded_conv_4/expand/Conv2D" type="Convolution" precision="FP32" id="28">
			<data auto_pad="same_upper" dilations="1,1" group="1" kernel="1,1" output="96" pads_begin="0,0" pads_end="0,0" quantization_level="I8" strides="1,1" />
			<input>
				<port id="0">
					<dim>1</dim>
					<dim>16</dim>
					<dim>38</dim>
					<dim>38</dim>
				</port>
			</input>
			<output>
				<port id="1">
					<dim>1</dim>
					<dim>96</dim>
					<dim>38</dim>
					<dim>38</dim>
				</port>
			</output>
			<blobs>
				<biases offset="53316" size="384" />
				<weights offset="53700" size="6144" />
			</blobs>
		</layer>
		<layer name="MobilenetV2/expanded_conv_4/expand/Relu6" type="Clamp" precision="FP32" id="29">
			<data max="6.000000" min="0.000000" />
			<input>
				<port id="0">
					<dim>1</dim>
					<dim>96</dim>
					<dim>38</dim>
					<dim>38</dim>
				</port>
			</input>
			<output>
				<port id="1">
					<dim>1</dim>
					<dim>96</dim>
					<dim>38</dim>
					<dim>38</dim>
				</port>
			</output>
		</layer>
		<layer name="MobilenetV2/expanded_conv_4/depthwise/depthwise" type="Convolution" precision="FP32" id="30">
			<data auto_pad="same_upper" dilations="1,1" group="96" kernel="3,3" output="96" pads_begin="1,1" pads_end="1,1" quantization_level="I8" strides="1,1" />
			<input>
				<port id="0">
					<dim>1</dim>
					<dim>96</dim>
					<dim>38</dim>
					<dim>38</dim>
				</port>
			</input>
			<output>
				<port id="1">
					<dim>1</dim>
					<dim>96</dim>
					<dim>38</dim>
					<dim>38</dim>
				</port>
			</output>
			<blobs>
				<biases offset="59844" size="384" />
				<weights offset="60228" size="3456" />
			</blobs>
		</layer>
		<layer name="MobilenetV2/expanded_conv_4/depthwise/Relu6" type="Clamp" precision="FP32" id="31">
			<data max="6.000000" min="0.000000" />
			<input>
				<port id="0">
					<dim>1</dim>
					<dim>96</dim>
					<dim>38</dim>
					<dim>38</dim>
				</port>
			</input>
			<output>
				<port id="1">
					<dim>1</dim>
					<dim>96</dim>
					<dim>38</dim>
					<dim>38</dim>
				</port>
			</output>
		</layer>
		<layer name="MobilenetV2/expanded_conv_4/project/Conv2D" type="Convolution" precision="FP32" id="32">
			<data auto_pad="same_upper" dilations="1,1" group="1" kernel="1,1" output="16" pads_begin="0,0" pads_end="0,0" quantization_level="I8" strides="1,1" />
			<input>
				<port id="0">
					<dim>1</dim>
					<dim>96</dim>
					<dim>38</dim>
					<dim>38</dim>
				</port>
			</input>
			<output>
				<port id="1">
					<dim>1</dim>
					<dim>16</dim>
					<dim>38</dim>
					<dim>38</dim>
				</port>
			</output>
			<blobs>
				<biases offset="63684" size="64" />
				<weights offset="63748" size="6144" />
			</blobs>
		</layer>
		<layer name="MobilenetV2/expanded_conv_4/add" type="Eltwise" precision="FP32" id="33">
			<data operation="sum" />
			<input>
				<port id="0">
					<dim>1</dim>
					<dim>16</dim>
					<dim>38</dim>
					<dim>38</dim>
				</port>
				<port id="1">
					<dim>1</dim>
					<dim>16</dim>
					<dim>38</dim>
					<dim>38</dim>
				</port>
			</input>
			<output>
				<port id="2">
					<dim>1</dim>
					<dim>16</dim>
					<dim>38</dim>
					<dim>38</dim>
				</port>
			</output>
		</layer>
		<layer name="MobilenetV2/expanded_conv_5/expand/Conv2D" type="Convolution" precision="FP32" id="34">
			<data auto_pad="same_upper" dilations="1,1" group="1" kernel="1,1" output="96" pads_begin="0,0" pads_end="0,0" quantization_level="I8" strides="1,1" />
			<input>
				<port id="0">
					<dim>1</dim>
					<dim>16</dim>
					<dim>38</dim>
					<dim>38</dim>
				</port>
			</input>
			<output>
				<port id="1">
					<dim>1</dim>
					<dim>96</dim>
					<dim>38</dim>
					<dim>38</dim>
				</port>
			</output>
			<blobs>
				<biases offset="69892" size="384" />
				<weights offset="70276" size="6144" />
			</blobs>
		</layer>
		<layer name="MobilenetV2/expanded_conv_5/expand/Relu6" type="Clamp" precision="FP32" id="35">
			<data max="6.000000" min="0.000000" />
			<input>
				<port id="0">
					<dim>1</dim>
					<dim>96</dim>
					<dim>38</dim>
					<dim>38</dim>
				</port>
			</input>
			<output>
				<port id="1">
					<dim>1</dim>
					<dim>96</dim>
					<dim>38</dim>
					<dim>38</dim>
				</port>
			</output>
		</layer>
		<layer name="MobilenetV2/expanded_conv_5/depthwise/depthwise" type="Convolution" precision="FP32" id="36">
			<data auto_pad="same_upper" dilations="1,1" group="96" kernel="3,3" output="96" pads_begin="1,1" pads_end="1,1" quantization_level="I8" strides="1,1" />
			<input>
				<port id="0">
					<dim>1</dim>
					<dim>96</dim>
					<dim>38</dim>
					<dim>38</dim>
				</port>
			</input>
			<output>
				<port id="1">
					<dim>1</dim>
					<dim>96</dim>
					<dim>38</dim>
					<dim>38</dim>
				</port>
			</output>
			<blobs>
				<biases offset="76420" size="384" />
				<weights offset="76804" size="3456" />
			</blobs>
		</layer>
		<layer name="MobilenetV2/expanded_conv_5/depthwise/Relu6" type="Clamp" precision="FP32" id="37">
			<data max="6.000000" min="0.000000" />
			<input>
				<port id="0">
					<dim>1</dim>
					<dim>96</dim>
					<dim>38</dim>
					<dim>38</dim>
				</port>
			</input>
			<output>
				<port id="1">
					<dim>1</dim>
					<dim>96</dim>
					<dim>38</dim>
					<dim>38</dim>
				</port>
			</output>
		</layer>
		<layer name="MobilenetV2/expanded_conv_5/project/Conv2D" type="Convolution" precision="FP32" id="38">
			<data auto_pad="same_upper" dilations="1,1" group="1" kernel="1,1" output="16" pads_begin="0,0" pads_end="0,0" quantization_level="I8" strides="1,1" />
			<input>
				<port id="0">
					<dim>1</dim>
					<dim>96</dim>
					<dim>38</dim>
					<dim>38</dim>
				</port>
			</input>
			<output>
				<port id="1">
					<dim>1</dim>
					<dim>16</dim>
					<dim>38</dim>
					<dim>38</dim>
				</port>
			</output>
			<blobs>
				<biases offset="80260" size="64" />
				<weights offset="80324" size="6144" />
			</blobs>
		</layer>
		<layer name="MobilenetV2/expanded_conv_5/add" type="Eltwise" precision="FP32" id="39">
			<data operation="sum" />
			<input>
				<port id="0">
					<dim>1</dim>
					<dim>16</dim>
					<dim>38</dim>
					<dim>38</dim>
				</port>
				<port id="1">
					<dim>1</dim>
					<dim>16</dim>
					<dim>38</dim>
					<dim>38</dim>
				</port>
			</input>
			<output>
				<port id="2">
					<dim>1</dim>
					<dim>16</dim>
					<dim>38</dim>
					<dim>38</dim>
				</port>
			</output>
		</layer>
		<layer name="MobilenetV2/expanded_conv_6/expand/Conv2D" type="Convolution" precision="FP32" id="40">
			<data auto_pad="same_upper" dilations="1,1" group="1" kernel="1,1" output="96" pads_begin="0,0" pads_end="0,0" quantization_level="I8" strides="1,1" />
			<input>
				<port id="0">
					<dim>1</dim>
					<dim>16</dim>
					<dim>38</dim>
					<dim>38</dim>
				</port>
			</input>
			<output>
				<port id="1">
					<dim>1</dim>
					<dim>96</dim>
					<dim>38</dim>
					<dim>38</dim>
				</port>
			</output>
			<blobs>
				<biases offset="86468" size="384" />
				<weights offset="86852" size="6144" />
			</blobs>
		</layer>
		<layer name="MobilenetV2/expanded_conv_6/expand/Relu6" type="Clamp" precision="FP32" id="41">
			<data max="6.000000" min="0.000000" />
			<input>
				<port id="0">
					<dim>1</dim>
					<dim>96</dim>
					<dim>38</dim>
					<dim>38</dim>
				</port>
			</input>
			<output>
				<port id="1">
					<dim>1</dim>
					<dim>96</dim>
					<dim>38</dim>
					<dim>38</dim>
				</port>
			</output>
		</layer>
		<layer name="MobilenetV2/expanded_conv_6/depthwise/depthwise" type="Convolution" precision="FP32" id="42">
			<data auto_pad="same_upper" dilations="1,1" group="96" kernel="3,3" output="96" pads_begin="0,0" pads_end="1,1" quantization_level="FP32" strides="2,2" />
			<input>
				<port id="0">
					<dim>1</dim>
					<dim>96</dim>
					<dim>38</dim>
					<dim>38</dim>
				</port>
			</input>
			<output>
				<port id="1">
					<dim>1</dim>
					<dim>96</dim>
					<dim>19</dim>
					<dim>19</dim>
				</port>
			</output>
			<blobs>
				<biases offset="92996" size="384" />
				<weights offset="93380" size="3456" />
			</blobs>
		</layer>
		<layer name="MobilenetV2/expanded_conv_6/depthwise/Relu6" type="Clamp" precision="FP32" id="43">
			<data max="6.000000" min="0.000000" />
			<input>
				<port id="0">
					<dim>1</dim>
					<dim>96</dim>
					<dim>19</dim>
					<dim>19</dim>
				</port>
			</input>
			<output>
				<port id="1">
					<dim>1</dim>
					<dim>96</dim>
					<dim>19</dim>
					<dim>19</dim>
				</port>
			</output>
		</layer>
		<layer name="MobilenetV2/expanded_conv_6/project/Conv2D" type="Convolution" precision="FP32" id="44">
			<data auto_pad="same_upper" dilations="1,1" group="1" kernel="1,1" output="24" pads_begin="0,0" pads_end="0,0" quantization_level="I8" strides="1,1" />
			<input>
				<port id="0">
					<dim>1</dim>
					<dim>96</dim>
					<dim>19</dim>
					<dim>19</dim>
				</port>
			</input>
			<output>
				<port id="1">
					<dim>1</dim>
					<dim>24</dim>
					<dim>19</dim>
					<dim>19</dim>
				</port>
			</output>
			<blobs>
				<biases offset="96836" size="96" />
				<weights offset="96932" size="9216" />
			</blobs>
		</layer>
		<layer name="MobilenetV2/expanded_conv_7/expand/Conv2D" type="Convolution" precision="FP32" id="45">
			<data auto_pad="same_upper" dilations="1,1" group="1" kernel="1,1" output="144" pads_begin="0,0" pads_end="0,0" quantization_level="I8" strides="1,1" />
			<input>
				<port id="0">
					<dim>1</dim>
					<dim>24</dim>
					<dim>19</dim>
					<dim>19</dim>
				</port>
			</input>
			<output>
				<port id="1">
					<dim>1</dim>
					<dim>144</dim>
					<dim>19</dim>
					<dim>19</dim>
				</port>
			</output>
			<blobs>
				<biases offset="106148" size="576" />
				<weights offset="106724" size="13824" />
			</blobs>
		</layer>
		<layer name="MobilenetV2/expanded_conv_7/expand/Relu6" type="Clamp" precision="FP32" id="46">
			<data max="6.000000" min="0.000000" />
			<input>
				<port id="0">
					<dim>1</dim>
					<dim>144</dim>
					<dim>19</dim>
					<dim>19</dim>
				</port>
			</input>
			<output>
				<port id="1">
					<dim>1</dim>
					<dim>144</dim>
					<dim>19</dim>
					<dim>19</dim>
				</port>
			</output>
		</layer>
		<layer name="MobilenetV2/expanded_conv_7/depthwise/depthwise" type="Convolution" precision="FP32" id="47">
			<data auto_pad="same_upper" dilations="1,1" group="144" kernel="3,3" output="144" pads_begin="1,1" pads_end="1,1" quantization_level="I8" strides="1,1" />
			<input>
				<port id="0">
					<dim>1</dim>
					<dim>144</dim>
					<dim>19</dim>
					<dim>19</dim>
				</port>
			</input>
			<output>
				<port id="1">
					<dim>1</dim>
					<dim>144</dim>
					<dim>19</dim>
					<dim>19</dim>
				</port>
			</output>
			<blobs>
				<biases offset="120548" size="576" />
				<weights offset="121124" size="5184" />
			</blobs>
		</layer>
		<layer name="MobilenetV2/expanded_conv_7/depthwise/Relu6" type="Clamp" precision="FP32" id="48">
			<data max="6.000000" min="0.000000" />
			<input>
				<port id="0">
					<dim>1</dim>
					<dim>144</dim>
					<dim>19</dim>
					<dim>19</dim>
				</port>
			</input>
			<output>
				<port id="1">
					<dim>1</dim>
					<dim>144</dim>
					<dim>19</dim>
					<dim>19</dim>
				</port>
			</output>
		</layer>
		<layer name="MobilenetV2/expanded_conv_7/project/Conv2D" type="Convolution" precision="FP32" id="49">
			<data auto_pad="same_upper" dilations="1,1" group="1" kernel="1,1" output="24" pads_begin="0,0" pads_end="0,0" quantization_level="I8" strides="1,1" />
			<input>
				<port id="0">
					<dim>1</dim>
					<dim>144</dim>
					<dim>19</dim>
					<dim>19</dim>
				</port>
			</input>
			<output>
				<port id="1">
					<dim>1</dim>
					<dim>24</dim>
					<dim>19</dim>
					<dim>19</dim>
				</port>
			</output>
			<blobs>
				<biases offset="126308" size="96" />
				<weights offset="126404" size="13824" />
			</blobs>
		</layer>
		<layer name="MobilenetV2/expanded_conv_7/add" type="Eltwise" precision="FP32" id="50">
			<data operation="sum" />
			<input>
				<port id="0">
					<dim>1</dim>
					<dim>24</dim>
					<dim>19</dim>
					<dim>19</dim>
				</port>
				<port id="1">
					<dim>1</dim>
					<dim>24</dim>
					<dim>19</dim>
					<dim>19</dim>
				</port>
			</input>
			<output>
				<port id="2">
					<dim>1</dim>
					<dim>24</dim>
					<dim>19</dim>
					<dim>19</dim>
				</port>
			</output>
		</layer>
		<layer name="MobilenetV2/expanded_conv_8/expand/Conv2D" type="Convolution" precision="FP32" id="51">
			<data auto_pad="same_upper" dilations="1,1" group="1" kernel="1,1" output="144" pads_begin="0,0" pads_end="0,0" quantization_level="I8" strides="1,1" />
			<input>
				<port id="0">
					<dim>1</dim>
					<dim>24</dim>
					<dim>19</dim>
					<dim>19</dim>
				</port>
			</input>
			<output>
				<port id="1">
					<dim>1</dim>
					<dim>144</dim>
					<dim>19</dim>
					<dim>19</dim>
				</port>
			</output>
			<blobs>
				<biases offset="140228" size="576" />
				<weights offset="140804" size="13824" />
			</blobs>
		</layer>
		<layer name="MobilenetV2/expanded_conv_8/expand/Relu6" type="Clamp" precision="FP32" id="52">
			<data max="6.000000" min="0.000000" />
			<input>
				<port id="0">
					<dim>1</dim>
					<dim>144</dim>
					<dim>19</dim>
					<dim>19</dim>
				</port>
			</input>
			<output>
				<port id="1">
					<dim>1</dim>
					<dim>144</dim>
					<dim>19</dim>
					<dim>19</dim>
				</port>
			</output>
		</layer>
		<layer name="MobilenetV2/expanded_conv_8/depthwise/depthwise" type="Convolution" precision="FP32" id="53">
			<data auto_pad="same_upper" dilations="1,1" group="144" kernel="3,3" output="144" pads_begin="1,1" pads_end="1,1" quantization_level="FP32" strides="1,1" />
			<input>
				<port id="0">
					<dim>1</dim>
					<dim>144</dim>
					<dim>19</dim>
					<dim>19</dim>
				</port>
			</input>
			<output>
				<port id="1">
					<dim>1</dim>
					<dim>144</dim>
					<dim>19</dim>
					<dim>19</dim>
				</port>
			</output>
			<blobs>
				<biases offset="154628" size="576" />
				<weights offset="155204" size="5184" />
			</blobs>
		</layer>
		<layer name="MobilenetV2/expanded_conv_8/depthwise/Relu6" type="Clamp" precision="FP32" id="54">
			<data max="6.000000" min="0.000000" />
			<input>
				<port id="0">
					<dim>1</dim>
					<dim>144</dim>
					<dim>19</dim>
					<dim>19</dim>
				</port>
			</input>
			<output>
				<port id="1">
					<dim>1</dim>
					<dim>144</dim>
					<dim>19</dim>
					<dim>19</dim>
				</port>
			</output>
		</layer>
		<layer name="MobilenetV2/expanded_conv_8/project/Conv2D" type="Convolution" precision="FP32" id="55">
			<data auto_pad="same_upper" dilations="1,1" group="1" kernel="1,1" output="24" pads_begin="0,0" pads_end="0,0" quantization_level="I8" strides="1,1" />
			<input>
				<port id="0">
					<dim>1</dim>
					<dim>144</dim>
					<dim>19</dim>
					<dim>19</dim>
				</port>
			</input>
			<output>
				<port id="1">
					<dim>1</dim>
					<dim>24</dim>
					<dim>19</dim>
					<dim>19</dim>
				</port>
			</output>
			<blobs>
				<biases offset="160388" size="96" />
				<weights offset="160484" size="13824" />
			</blobs>
		</layer>
		<layer name="MobilenetV2/expanded_conv_8/add" type="Eltwise" precision="FP32" id="56">
			<data operation="sum" />
			<input>
				<port id="0">
					<dim>1</dim>
					<dim>24</dim>
					<dim>19</dim>
					<dim>19</dim>
				</port>
				<port id="1">
					<dim>1</dim>
					<dim>24</dim>
					<dim>19</dim>
					<dim>19</dim>
				</port>
			</input>
			<output>
				<port id="2">
					<dim>1</dim>
					<dim>24</dim>
					<dim>19</dim>
					<dim>19</dim>
				</port>
			</output>
		</layer>
		<layer name="MobilenetV2/expanded_conv_9/expand/Conv2D" type="Convolution" precision="FP32" id="57">
			<data auto_pad="same_upper" dilations="1,1" group="1" kernel="1,1" output="144" pads_begin="0,0" pads_end="0,0" quantization_level="I8" strides="1,1" />
			<input>
				<port id="0">
					<dim>1</dim>
					<dim>24</dim>
					<dim>19</dim>
					<dim>19</dim>
				</port>
			</input>
			<output>
				<port id="1">
					<dim>1</dim>
					<dim>144</dim>
					<dim>19</dim>
					<dim>19</dim>
				</port>
			</output>
			<blobs>
				<biases offset="174308" size="576" />
				<weights offset="174884" size="13824" />
			</blobs>
		</layer>
		<layer name="MobilenetV2/expanded_conv_9/expand/Relu6" type="Clamp" precision="FP32" id="58">
			<data max="6.000000" min="0.000000" />
			<input>
				<port id="0">
					<dim>1</dim>
					<dim>144</dim>
					<dim>19</dim>
					<dim>19</dim>
				</port>
			</input>
			<output>
				<port id="1">
					<dim>1</dim>
					<dim>144</dim>
					<dim>19</dim>
					<dim>19</dim>
				</port>
			</output>
		</layer>
		<layer name="MobilenetV2/expanded_conv_9/depthwise/depthwise" type="Convolution" precision="FP32" id="59">
			<data auto_pad="same_upper" dilations="1,1" group="144" kernel="3,3" output="144" pads_begin="1,1" pads_end="1,1" quantization_level="FP32" strides="1,1" />
			<input>
				<port id="0">
					<dim>1</dim>
					<dim>144</dim>
					<dim>19</dim>
					<dim>19</dim>
				</port>
			</input>
			<output>
				<port id="1">
					<dim>1</dim>
					<dim>144</dim>
					<dim>19</dim>
					<dim>19</dim>
				</port>
			</output>
			<blobs>
				<biases offset="188708" size="576" />
				<weights offset="189284" size="5184" />
			</blobs>
		</layer>
		<layer name="MobilenetV2/expanded_conv_9/depthwise/Relu6" type="Clamp" precision="FP32" id="60">
			<data max="6.000000" min="0.000000" />
			<input>
				<port id="0">
					<dim>1</dim>
					<dim>144</dim>
					<dim>19</dim>
					<dim>19</dim>
				</port>
			</input>
			<output>
				<port id="1">
					<dim>1</dim>
					<dim>144</dim>
					<dim>19</dim>
					<dim>19</dim>
				</port>
			</output>
		</layer>
		<layer name="MobilenetV2/expanded_conv_9/project/Conv2D" type="Convolution" precision="FP32" id="61">
			<data auto_pad="same_upper" dilations="1,1" group="1" kernel="1,1" output="24" pads_begin="0,0" pads_end="0,0" quantization_level="I8" strides="1,1" />
			<input>
				<port id="0">
					<dim>1</dim>
					<dim>144</dim>
					<dim>19</dim>
					<dim>19</dim>
				</port>
			</input>
			<output>
				<port id="1">
					<dim>1</dim>
					<dim>24</dim>
					<dim>19</dim>
					<dim>19</dim>
				</port>
			</output>
			<blobs>
				<biases offset="194468" size="96" />
				<weights offset="194564" size="13824" />
			</blobs>
		</layer>
		<layer name="MobilenetV2/expanded_conv_9/add" type="Eltwise" precision="FP32" id="62">
			<data operation="sum" />
			<input>
				<port id="0">
					<dim>1</dim>
					<dim>24</dim>
					<dim>19</dim>
					<dim>19</dim>
				</port>
				<port id="1">
					<dim>1</dim>
					<dim>24</dim>
					<dim>19</dim>
					<dim>19</dim>
				</port>
			</input>
			<output>
				<port id="2">
					<dim>1</dim>
					<dim>24</dim>
					<dim>19</dim>
					<dim>19</dim>
				</port>
			</output>
		</layer>
		<layer name="MobilenetV2/expanded_conv_10/expand/Conv2D" type="Convolution" precision="FP32" id="63">
			<data auto_pad="same_upper" dilations="1,1" group="1" kernel="1,1" output="144" pads_begin="0,0" pads_end="0,0" quantization_level="I8" strides="1,1" />
			<input>
				<port id="0">
					<dim>1</dim>
					<dim>24</dim>
					<dim>19</dim>
					<dim>19</dim>
				</port>
			</input>
			<output>
				<port id="1">
					<dim>1</dim>
					<dim>144</dim>
					<dim>19</dim>
					<dim>19</dim>
				</port>
			</output>
			<blobs>
				<biases offset="208388" size="576" />
				<weights offset="208964" size="13824" />
			</blobs>
		</layer>
		<layer name="MobilenetV2/expanded_conv_10/expand/Relu6" type="Clamp" precision="FP32" id="64">
			<data max="6.000000" min="0.000000" />
			<input>
				<port id="0">
					<dim>1</dim>
					<dim>144</dim>
					<dim>19</dim>
					<dim>19</dim>
				</port>
			</input>
			<output>
				<port id="1">
					<dim>1</dim>
					<dim>144</dim>
					<dim>19</dim>
					<dim>19</dim>
				</port>
			</output>
		</layer>
		<layer name="MobilenetV2/expanded_conv_10/depthwise/depthwise" type="Convolution" precision="FP32" id="65">
			<data auto_pad="same_upper" dilations="1,1" group="144" kernel="3,3" output="144" pads_begin="1,1" pads_end="1,1" quantization_level="I8" strides="1,1" />
			<input>
				<port id="0">
					<dim>1</dim>
					<dim>144</dim>
					<dim>19</dim>
					<dim>19</dim>
				</port>
			</input>
			<output>
				<port id="1">
					<dim>1</dim>
					<dim>144</dim>
					<dim>19</dim>
					<dim>19</dim>
				</port>
			</output>
			<blobs>
				<biases offset="222788" size="576" />
				<weights offset="223364" size="5184" />
			</blobs>
		</layer>
		<layer name="MobilenetV2/expanded_conv_10/depthwise/Relu6" type="Clamp" precision="FP32" id="66">
			<data max="6.000000" min="0.000000" />
			<input>
				<port id="0">
					<dim>1</dim>
					<dim>144</dim>
					<dim>19</dim>
					<dim>19</dim>
				</port>
			</input>
			<output>
				<port id="1">
					<dim>1</dim>
					<dim>144</dim>
					<dim>19</dim>
					<dim>19</dim>
				</port>
			</output>
		</layer>
		<layer name="MobilenetV2/expanded_conv_10/project/Conv2D" type="Convolution" precision="FP32" id="67">
			<data auto_pad="same_upper" dilations="1,1" group="1" kernel="1,1" output="32" pads_begin="0,0" pads_end="0,0" quantization_level="I8" strides="1,1" />
			<input>
				<port id="0">
					<dim>1</dim>
					<dim>144</dim>
					<dim>19</dim>
					<dim>19</dim>
				</port>
			</input>
			<output>
				<port id="1">
					<dim>1</dim>
					<dim>32</dim>
					<dim>19</dim>
					<dim>19</dim>
				</port>
			</output>
			<blobs>
				<biases offset="228548" size="128" />
				<weights offset="228676" size="18432" />
			</blobs>
		</layer>
		<layer name="MobilenetV2/expanded_conv_11/expand/Conv2D" type="Convolution" precision="FP32" id="68">
			<data auto_pad="same_upper" dilations="1,1" group="1" kernel="1,1" output="192" pads_begin="0,0" pads_end="0,0" quantization_level="I8" strides="1,1" />
			<input>
				<port id="0">
					<dim>1</dim>
					<dim>32</dim>
					<dim>19</dim>
					<dim>19</dim>
				</port>
			</input>
			<output>
				<port id="1">
					<dim>1</dim>
					<dim>192</dim>
					<dim>19</dim>
					<dim>19</dim>
				</port>
			</output>
			<blobs>
				<biases offset="247108" size="768" />
				<weights offset="247876" size="24576" />
			</blobs>
		</layer>
		<layer name="MobilenetV2/expanded_conv_11/expand/Relu6" type="Clamp" precision="FP32" id="69">
			<data max="6.000000" min="0.000000" />
			<input>
				<port id="0">
					<dim>1</dim>
					<dim>192</dim>
					<dim>19</dim>
					<dim>19</dim>
				</port>
			</input>
			<output>
				<port id="1">
					<dim>1</dim>
					<dim>192</dim>
					<dim>19</dim>
					<dim>19</dim>
				</port>
			</output>
		</layer>
		<layer name="MobilenetV2/expanded_conv_11/depthwise/depthwise" type="Convolution" precision="FP32" id="70">
			<data auto_pad="same_upper" dilations="1,1" group="192" kernel="3,3" output="192" pads_begin="1,1" pads_end="1,1" quantization_level="I8" strides="1,1" />
			<input>
				<port id="0">
					<dim>1</dim>
					<dim>192</dim>
					<dim>19</dim>
					<dim>19</dim>
				</port>
			</input>
			<output>
				<port id="1">
					<dim>1</dim>
					<dim>192</dim>
					<dim>19</dim>
					<dim>19</dim>
				</port>
			</output>
			<blobs>
				<biases offset="272452" size="768" />
				<weights offset="273220" size="6912" />
			</blobs>
		</layer>
		<layer name="MobilenetV2/expanded_conv_11/depthwise/Relu6" type="Clamp" precision="FP32" id="71">
			<data max="6.000000" min="0.000000" />
			<input>
				<port id="0">
					<dim>1</dim>
					<dim>192</dim>
					<dim>19</dim>
					<dim>19</dim>
				</port>
			</input>
			<output>
				<port id="1">
					<dim>1</dim>
					<dim>192</dim>
					<dim>19</dim>
					<dim>19</dim>
				</port>
			</output>
		</layer>
		<layer name="MobilenetV2/expanded_conv_11/project/Conv2D" type="Convolution" precision="FP32" id="72">
			<data auto_pad="same_upper" dilations="1,1" group="1" kernel="1,1" output="32" pads_begin="0,0" pads_end="0,0" quantization_level="I8" strides="1,1" />
			<input>
				<port id="0">
					<dim>1</dim>
					<dim>192</dim>
					<dim>19</dim>
					<dim>19</dim>
				</port>
			</input>
			<output>
				<port id="1">
					<dim>1</dim>
					<dim>32</dim>
					<dim>19</dim>
					<dim>19</dim>
				</port>
			</output>
			<blobs>
				<biases offset="280132" size="128" />
				<weights offset="280260" size="24576" />
			</blobs>
		</layer>
		<layer name="MobilenetV2/expanded_conv_11/add" type="Eltwise" precision="FP32" id="73">
			<data operation="sum" />
			<input>
				<port id="0">
					<dim>1</dim>
					<dim>32</dim>
					<dim>19</dim>
					<dim>19</dim>
				</port>
				<port id="1">
					<dim>1</dim>
					<dim>32</dim>
					<dim>19</dim>
					<dim>19</dim>
				</port>
			</input>
			<output>
				<port id="2">
					<dim>1</dim>
					<dim>32</dim>
					<dim>19</dim>
					<dim>19</dim>
				</port>
			</output>
		</layer>
		<layer name="MobilenetV2/expanded_conv_12/expand/Conv2D" type="Convolution" precision="FP32" id="74">
			<data auto_pad="same_upper" dilations="1,1" group="1" kernel="1,1" output="192" pads_begin="0,0" pads_end="0,0" quantization_level="I8" strides="1,1" />
			<input>
				<port id="0">
					<dim>1</dim>
					<dim>32</dim>
					<dim>19</dim>
					<dim>19</dim>
				</port>
			</input>
			<output>
				<port id="1">
					<dim>1</dim>
					<dim>192</dim>
					<dim>19</dim>
					<dim>19</dim>
				</port>
			</output>
			<blobs>
				<biases offset="304836" size="768" />
				<weights offset="305604" size="24576" />
			</blobs>
		</layer>
		<layer name="MobilenetV2/expanded_conv_12/expand/Relu6" type="Clamp" precision="FP32" id="75">
			<data max="6.000000" min="0.000000" />
			<input>
				<port id="0">
					<dim>1</dim>
					<dim>192</dim>
					<dim>19</dim>
					<dim>19</dim>
				</port>
			</input>
			<output>
				<port id="1">
					<dim>1</dim>
					<dim>192</dim>
					<dim>19</dim>
					<dim>19</dim>
				</port>
			</output>
		</layer>
		<layer name="MobilenetV2/expanded_conv_12/depthwise/depthwise" type="Convolution" precision="FP32" id="76">
			<data auto_pad="same_upper" dilations="1,1" group="192" kernel="3,3" output="192" pads_begin="1,1" pads_end="1,1" quantization_level="I8" strides="1,1" />
			<input>
				<port id="0">
					<dim>1</dim>
					<dim>192</dim>
					<dim>19</dim>
					<dim>19</dim>
				</port>
			</input>
			<output>
				<port id="1">
					<dim>1</dim>
					<dim>192</dim>
					<dim>19</dim>
					<dim>19</dim>
				</port>
			</output>
			<blobs>
				<biases offset="330180" size="768" />
				<weights offset="330948" size="6912" />
			</blobs>
		</layer>
		<layer name="MobilenetV2/expanded_conv_12/depthwise/Relu6" type="Clamp" precision="FP32" id="77">
			<data max="6.000000" min="0.000000" />
			<input>
				<port id="0">
					<dim>1</dim>
					<dim>192</dim>
					<dim>19</dim>
					<dim>19</dim>
				</port>
			</input>
			<output>
				<port id="1">
					<dim>1</dim>
					<dim>192</dim>
					<dim>19</dim>
					<dim>19</dim>
				</port>
			</output>
		</layer>
		<layer name="MobilenetV2/expanded_conv_12/project/Conv2D" type="Convolution" precision="FP32" id="78">
			<data auto_pad="same_upper" dilations="1,1" group="1" kernel="1,1" output="32" pads_begin="0,0" pads_end="0,0" quantization_level="I8" strides="1,1" />
			<input>
				<port id="0">
					<dim>1</dim>
					<dim>192</dim>
					<dim>19</dim>
					<dim>19</dim>
				</port>
			</input>
			<output>
				<port id="1">
					<dim>1</dim>
					<dim>32</dim>
					<dim>19</dim>
					<dim>19</dim>
				</port>
			</output>
			<blobs>
				<biases offset="337860" size="128" />
				<weights offset="337988" size="24576" />
			</blobs>
		</layer>
		<layer name="MobilenetV2/expanded_conv_12/add" type="Eltwise" precision="FP32" id="79">
			<data operation="sum" />
			<input>
				<port id="0">
					<dim>1</dim>
					<dim>32</dim>
					<dim>19</dim>
					<dim>19</dim>
				</port>
				<port id="1">
					<dim>1</dim>
					<dim>32</dim>
					<dim>19</dim>
					<dim>19</dim>
				</port>
			</input>
			<output>
				<port id="2">
					<dim>1</dim>
					<dim>32</dim>
					<dim>19</dim>
					<dim>19</dim>
				</port>
			</output>
		</layer>
		<layer name="SSD/ssd_head/layer_14/output_mbox_loc/Conv2D" type="Convolution" precision="FP32" id="80">
			<data auto_pad="same_upper" dilations="1,1" group="1" kernel="3,3" output="8" pads_begin="1,1" pads_end="1,1" quantization_level="I8" strides="1,1" />
			<input>
				<port id="0">
					<dim>1</dim>
					<dim>32</dim>
					<dim>19</dim>
					<dim>19</dim>
				</port>
			</input>
			<output>
				<port id="1">
					<dim>1</dim>
					<dim>8</dim>
					<dim>19</dim>
					<dim>19</dim>
				</port>
			</output>
			<blobs>
				<biases offset="362564" size="32" />
				<weights offset="362596" size="9216" />
			</blobs>
		</layer>
		<layer name="SSD/ssd_head/layer_14/output_mbox_loc/Conv2D/Transpose" type="Permute" precision="FP32" id="81">
			<data order="0,2,3,1" />
			<input>
				<port id="0">
					<dim>1</dim>
					<dim>8</dim>
					<dim>19</dim>
					<dim>19</dim>
				</port>
			</input>
			<output>
				<port id="1">
					<dim>1</dim>
					<dim>19</dim>
					<dim>19</dim>
					<dim>8</dim>
				</port>
			</output>
		</layer>
		<layer name="SSD/ssd_head/layer_14/output_mbox_conf/Conv2D" type="Convolution" precision="FP32" id="82">
			<data auto_pad="same_upper" dilations="1,1" group="1" kernel="3,3" output="6" pads_begin="1,1" pads_end="1,1" quantization_level="I8" strides="1,1" />
			<input>
				<port id="0">
					<dim>1</dim>
					<dim>32</dim>
					<dim>19</dim>
					<dim>19</dim>
				</port>
			</input>
			<output>
				<port id="1">
					<dim>1</dim>
					<dim>6</dim>
					<dim>19</dim>
					<dim>19</dim>
				</port>
			</output>
			<blobs>
				<biases offset="371812" size="24" />
				<weights offset="371836" size="6912" />
			</blobs>
		</layer>
		<layer name="SSD/ssd_head/layer_14/output_mbox_conf/Conv2D/Transpose" type="Permute" precision="FP32" id="83">
			<data order="0,2,3,1" />
			<input>
				<port id="0">
					<dim>1</dim>
					<dim>6</dim>
					<dim>19</dim>
					<dim>19</dim>
				</port>
			</input>
			<output>
				<port id="1">
					<dim>1</dim>
					<dim>19</dim>
					<dim>19</dim>
					<dim>6</dim>
				</port>
			</output>
		</layer>
		<layer name="MobilenetV2/expanded_conv_13/expand/Conv2D" type="Convolution" precision="FP32" id="84">
			<data auto_pad="same_upper" dilations="1,1" group="1" kernel="1,1" output="192" pads_begin="0,0" pads_end="0,0" quantization_level="I8" strides="1,1" />
			<input>
				<port id="0">
					<dim>1</dim>
					<dim>32</dim>
					<dim>19</dim>
					<dim>19</dim>
				</port>
			</input>
			<output>
				<port id="1">
					<dim>1</dim>
					<dim>192</dim>
					<dim>19</dim>
					<dim>19</dim>
				</port>
			</output>
			<blobs>
				<biases offset="378748" size="768" />
				<weights offset="379516" size="24576" />
			</blobs>
		</layer>
		<layer name="MobilenetV2/expanded_conv_13/expand/Relu6" type="Clamp" precision="FP32" id="85">
			<data max="6.000000" min="0.000000" />
			<input>
				<port id="0">
					<dim>1</dim>
					<dim>192</dim>
					<dim>19</dim>
					<dim>19</dim>
				</port>
			</input>
			<output>
				<port id="1">
					<dim>1</dim>
					<dim>192</dim>
					<dim>19</dim>
					<dim>19</dim>
				</port>
			</output>
		</layer>
		<layer name="MobilenetV2/expanded_conv_13/depthwise/depthwise" type="Convolution" precision="FP32" id="86">
			<data auto_pad="same_upper" dilations="1,1" group="192" kernel="3,3" output="192" pads_begin="1,1" pads_end="1,1" quantization_level="I8" strides="2,2" />
			<input>
				<port id="0">
					<dim>1</dim>
					<dim>192</dim>
					<dim>19</dim>
					<dim>19</dim>
				</port>
			</input>
			<output>
				<port id="1">
					<dim>1</dim>
					<dim>192</dim>
					<dim>10</dim>
					<dim>10</dim>
				</port>
			</output>
			<blobs>
				<biases offset="404092" size="768" />
				<weights offset="404860" size="6912" />
			</blobs>
		</layer>
		<layer name="MobilenetV2/expanded_conv_13/depthwise/Relu6" type="Clamp" precision="FP32" id="87">
			<data max="6.000000" min="0.000000" />
			<input>
				<port id="0">
					<dim>1</dim>
					<dim>192</dim>
					<dim>10</dim>
					<dim>10</dim>
				</port>
			</input>
			<output>
				<port id="1">
					<dim>1</dim>
					<dim>192</dim>
					<dim>10</dim>
					<dim>10</dim>
				</port>
			</output>
		</layer>
		<layer name="MobilenetV2/expanded_conv_13/project/Conv2D" type="Convolution" precision="FP32" id="88">
			<data auto_pad="same_upper" dilations="1,1" group="1" kernel="1,1" output="56" pads_begin="0,0" pads_end="0,0" quantization_level="I8" strides="1,1" />
			<input>
				<port id="0">
					<dim>1</dim>
					<dim>192</dim>
					<dim>10</dim>
					<dim>10</dim>
				</port>
			</input>
			<output>
				<port id="1">
					<dim>1</dim>
					<dim>56</dim>
					<dim>10</dim>
					<dim>10</dim>
				</port>
			</output>
			<blobs>
				<biases offset="411772" size="224" />
				<weights offset="411996" size="43008" />
			</blobs>
		</layer>
		<layer name="MobilenetV2/expanded_conv_14/expand/Conv2D" type="Convolution" precision="FP32" id="89">
			<data auto_pad="same_upper" dilations="1,1" group="1" kernel="1,1" output="336" pads_begin="0,0" pads_end="0,0" quantization_level="I8" strides="1,1" />
			<input>
				<port id="0">
					<dim>1</dim>
					<dim>56</dim>
					<dim>10</dim>
					<dim>10</dim>
				</port>
			</input>
			<output>
				<port id="1">
					<dim>1</dim>
					<dim>336</dim>
					<dim>10</dim>
					<dim>10</dim>
				</port>
			</output>
			<blobs>
				<biases offset="455004" size="1344" />
				<weights offset="456348" size="75264" />
			</blobs>
		</layer>
		<layer name="MobilenetV2/expanded_conv_14/expand/Relu6" type="Clamp" precision="FP32" id="90">
			<data max="6.000000" min="0.000000" />
			<input>
				<port id="0">
					<dim>1</dim>
					<dim>336</dim>
					<dim>10</dim>
					<dim>10</dim>
				</port>
			</input>
			<output>
				<port id="1">
					<dim>1</dim>
					<dim>336</dim>
					<dim>10</dim>
					<dim>10</dim>
				</port>
			</output>
		</layer>
		<layer name="MobilenetV2/expanded_conv_14/depthwise/depthwise" type="Convolution" precision="FP32" id="91">
			<data auto_pad="same_upper" dilations="1,1" group="336" kernel="3,3" output="336" pads_begin="1,1" pads_end="1,1" quantization_level="I8" strides="1,1" />
			<input>
				<port id="0">
					<dim>1</dim>
					<dim>336</dim>
					<dim>10</dim>
					<dim>10</dim>
				</port>
			</input>
			<output>
				<port id="1">
					<dim>1</dim>
					<dim>336</dim>
					<dim>10</dim>
					<dim>10</dim>
				</port>
			</output>
			<blobs>
				<biases offset="531612" size="1344" />
				<weights offset="532956" size="12096" />
			</blobs>
		</layer>
		<layer name="MobilenetV2/expanded_conv_14/depthwise/Relu6" type="Clamp" precision="FP32" id="92">
			<data max="6.000000" min="0.000000" />
			<input>
				<port id="0">
					<dim>1</dim>
					<dim>336</dim>
					<dim>10</dim>
					<dim>10</dim>
				</port>
			</input>
			<output>
				<port id="1">
					<dim>1</dim>
					<dim>336</dim>
					<dim>10</dim>
					<dim>10</dim>
				</port>
			</output>
		</layer>
		<layer name="MobilenetV2/expanded_conv_14/project/Conv2D" type="Convolution" precision="FP32" id="93">
			<data auto_pad="same_upper" dilations="1,1" group="1" kernel="1,1" output="56" pads_begin="0,0" pads_end="0,0" quantization_level="I8" strides="1,1" />
			<input>
				<port id="0">
					<dim>1</dim>
					<dim>336</dim>
					<dim>10</dim>
					<dim>10</dim>
				</port>
			</input>
			<output>
				<port id="1">
					<dim>1</dim>
					<dim>56</dim>
					<dim>10</dim>
					<dim>10</dim>
				</port>
			</output>
			<blobs>
				<biases offset="545052" size="224" />
				<weights offset="545276" size="75264" />
			</blobs>
		</layer>
		<layer name="MobilenetV2/expanded_conv_14/add" type="Eltwise" precision="FP32" id="94">
			<data operation="sum" />
			<input>
				<port id="0">
					<dim>1</dim>
					<dim>56</dim>
					<dim>10</dim>
					<dim>10</dim>
				</port>
				<port id="1">
					<dim>1</dim>
					<dim>56</dim>
					<dim>10</dim>
					<dim>10</dim>
				</port>
			</input>
			<output>
				<port id="2">
					<dim>1</dim>
					<dim>56</dim>
					<dim>10</dim>
					<dim>10</dim>
				</port>
			</output>
		</layer>
		<layer name="MobilenetV2/expanded_conv_15/expand/Conv2D" type="Convolution" precision="FP32" id="95">
			<data auto_pad="same_upper" dilations="1,1" group="1" kernel="1,1" output="336" pads_begin="0,0" pads_end="0,0" quantization_level="I8" strides="1,1" />
			<input>
				<port id="0">
					<dim>1</dim>
					<dim>56</dim>
					<dim>10</dim>
					<dim>10</dim>
				</port>
			</input>
			<output>
				<port id="1">
					<dim>1</dim>
					<dim>336</dim>
					<dim>10</dim>
					<dim>10</dim>
				</port>
			</output>
			<blobs>
				<biases offset="620540" size="1344" />
				<weights offset="621884" size="75264" />
			</blobs>
		</layer>
		<layer name="MobilenetV2/expanded_conv_15/expand/Relu6" type="Clamp" precision="FP32" id="96">
			<data max="6.000000" min="0.000000" />
			<input>
				<port id="0">
					<dim>1</dim>
					<dim>336</dim>
					<dim>10</dim>
					<dim>10</dim>
				</port>
			</input>
			<output>
				<port id="1">
					<dim>1</dim>
					<dim>336</dim>
					<dim>10</dim>
					<dim>10</dim>
				</port>
			</output>
		</layer>
		<layer name="MobilenetV2/expanded_conv_15/depthwise/depthwise" type="Convolution" precision="FP32" id="97">
			<data auto_pad="same_upper" dilations="1,1" group="336" kernel="3,3" output="336" pads_begin="1,1" pads_end="1,1" quantization_level="I8" strides="1,1" />
			<input>
				<port id="0">
					<dim>1</dim>
					<dim>336</dim>
					<dim>10</dim>
					<dim>10</dim>
				</port>
			</input>
			<output>
				<port id="1">
					<dim>1</dim>
					<dim>336</dim>
					<dim>10</dim>
					<dim>10</dim>
				</port>
			</output>
			<blobs>
				<biases offset="697148" size="1344" />
				<weights offset="698492" size="12096" />
			</blobs>
		</layer>
		<layer name="MobilenetV2/expanded_conv_15/depthwise/Relu6" type="Clamp" precision="FP32" id="98">
			<data max="6.000000" min="0.000000" />
			<input>
				<port id="0">
					<dim>1</dim>
					<dim>336</dim>
					<dim>10</dim>
					<dim>10</dim>
				</port>
			</input>
			<output>
				<port id="1">
					<dim>1</dim>
					<dim>336</dim>
					<dim>10</dim>
					<dim>10</dim>
				</port>
			</output>
		</layer>
		<layer name="MobilenetV2/expanded_conv_15/project/Conv2D" type="Convolution" precision="FP32" id="99">
			<data auto_pad="same_upper" dilations="1,1" group="1" kernel="1,1" output="56" pads_begin="0,0" pads_end="0,0" quantization_level="I8" strides="1,1" />
			<input>
				<port id="0">
					<dim>1</dim>
					<dim>336</dim>
					<dim>10</dim>
					<dim>10</dim>
				</port>
			</input>
			<output>
				<port id="1">
					<dim>1</dim>
					<dim>56</dim>
					<dim>10</dim>
					<dim>10</dim>
				</port>
			</output>
			<blobs>
				<biases offset="710588" size="224" />
				<weights offset="710812" size="75264" />
			</blobs>
		</layer>
		<layer name="MobilenetV2/expanded_conv_15/add" type="Eltwise" precision="FP32" id="100">
			<data operation="sum" />
			<input>
				<port id="0">
					<dim>1</dim>
					<dim>56</dim>
					<dim>10</dim>
					<dim>10</dim>
				</port>
				<port id="1">
					<dim>1</dim>
					<dim>56</dim>
					<dim>10</dim>
					<dim>10</dim>
				</port>
			</input>
			<output>
				<port id="2">
					<dim>1</dim>
					<dim>56</dim>
					<dim>10</dim>
					<dim>10</dim>
				</port>
			</output>
		</layer>
		<layer name="MobilenetV2/expanded_conv_16/expand/Conv2D" type="Convolution" precision="FP32" id="101">
			<data auto_pad="same_upper" dilations="1,1" group="1" kernel="1,1" output="336" pads_begin="0,0" pads_end="0,0" quantization_level="I8" strides="1,1" />
			<input>
				<port id="0">
					<dim>1</dim>
					<dim>56</dim>
					<dim>10</dim>
					<dim>10</dim>
				</port>
			</input>
			<output>
				<port id="1">
					<dim>1</dim>
					<dim>336</dim>
					<dim>10</dim>
					<dim>10</dim>
				</port>
			</output>
			<blobs>
				<biases offset="786076" size="1344" />
				<weights offset="787420" size="75264" />
			</blobs>
		</layer>
		<layer name="MobilenetV2/expanded_conv_16/expand/Relu6" type="Clamp" precision="FP32" id="102">
			<data max="6.000000" min="0.000000" />
			<input>
				<port id="0">
					<dim>1</dim>
					<dim>336</dim>
					<dim>10</dim>
					<dim>10</dim>
				</port>
			</input>
			<output>
				<port id="1">
					<dim>1</dim>
					<dim>336</dim>
					<dim>10</dim>
					<dim>10</dim>
				</port>
			</output>
		</layer>
		<layer name="MobilenetV2/expanded_conv_16/depthwise/depthwise" type="Convolution" precision="FP32" id="103">
			<data auto_pad="same_upper" dilations="1,1" group="336" kernel="3,3" output="336" pads_begin="1,1" pads_end="1,1" quantization_level="I8" strides="1,1" />
			<input>
				<port id="0">
					<dim>1</dim>
					<dim>336</dim>
					<dim>10</dim>
					<dim>10</dim>
				</port>
			</input>
			<output>
				<port id="1">
					<dim>1</dim>
					<dim>336</dim>
					<dim>10</dim>
					<dim>10</dim>
				</port>
			</output>
			<blobs>
				<biases offset="862684" size="1344" />
				<weights offset="864028" size="12096" />
			</blobs>
		</layer>
		<layer name="MobilenetV2/expanded_conv_16/depthwise/Relu6" type="Clamp" precision="FP32" id="104">
			<data max="6.000000" min="0.000000" />
			<input>
				<port id="0">
					<dim>1</dim>
					<dim>336</dim>
					<dim>10</dim>
					<dim>10</dim>
				</port>
			</input>
			<output>
				<port id="1">
					<dim>1</dim>
					<dim>336</dim>
					<dim>10</dim>
					<dim>10</dim>
				</port>
			</output>
		</layer>
		<layer name="MobilenetV2/expanded_conv_16/project/Conv2D" type="Convolution" precision="FP32" id="105">
			<data auto_pad="same_upper" dilations="1,1" group="1" kernel="1,1" output="112" pads_begin="0,0" pads_end="0,0" quantization_level="I8" strides="1,1" />
			<input>
				<port id="0">
					<dim>1</dim>
					<dim>336</dim>
					<dim>10</dim>
					<dim>10</dim>
				</port>
			</input>
			<output>
				<port id="1">
					<dim>1</dim>
					<dim>112</dim>
					<dim>10</dim>
					<dim>10</dim>
				</port>
			</output>
			<blobs>
				<biases offset="876124" size="448" />
				<weights offset="876572" size="150528" />
			</blobs>
		</layer>
		<layer name="features/intermediate_1/Conv2D" type="Convolution" precision="FP32" id="106">
			<data auto_pad="same_upper" dilations="1,1" group="1" kernel="1,1" output="96" pads_begin="0,0" pads_end="0,0" quantization_level="I8" strides="1,1" />
			<input>
				<port id="0">
					<dim>1</dim>
					<dim>112</dim>
					<dim>10</dim>
					<dim>10</dim>
				</port>
			</input>
			<output>
				<port id="1">
					<dim>1</dim>
					<dim>96</dim>
					<dim>10</dim>
					<dim>10</dim>
				</port>
			</output>
			<blobs>
				<biases offset="1027100" size="384" />
				<weights offset="1027484" size="43008" />
			</blobs>
		</layer>
		<layer name="features/intermediate_1/Relu" type="ReLU" precision="FP32" id="107">
			<input>
				<port id="0">
					<dim>1</dim>
					<dim>96</dim>
					<dim>10</dim>
					<dim>10</dim>
				</port>
			</input>
			<output>
				<port id="1">
					<dim>1</dim>
					<dim>96</dim>
					<dim>10</dim>
					<dim>10</dim>
				</port>
			</output>
		</layer>
		<layer name="features/feature_map_1/Conv2D" type="Convolution" precision="FP32" id="108">
			<data auto_pad="same_upper" dilations="1,1" group="1" kernel="3,3" output="192" pads_begin="0,0" pads_end="1,1" quantization_level="I8" strides="2,2" />
			<input>
				<port id="0">
					<dim>1</dim>
					<dim>96</dim>
					<dim>10</dim>
					<dim>10</dim>
				</port>
			</input>
			<output>
				<port id="1">
					<dim>1</dim>
					<dim>192</dim>
					<dim>5</dim>
					<dim>5</dim>
				</port>
			</output>
			<blobs>
				<biases offset="1070492" size="768" />
				<weights offset="1071260" size="663552" />
			</blobs>
		</layer>
		<layer name="features/feature_map_1/Relu" type="ReLU" precision="FP32" id="109">
			<input>
				<port id="0">
					<dim>1</dim>
					<dim>192</dim>
					<dim>5</dim>
					<dim>5</dim>
				</port>
			</input>
			<output>
				<port id="1">
					<dim>1</dim>
					<dim>192</dim>
					<dim>5</dim>
					<dim>5</dim>
				</port>
			</output>
		</layer>
		<layer name="features/intermediate_2/Conv2D" type="Convolution" precision="FP32" id="110">
			<data auto_pad="same_upper" dilations="1,1" group="1" kernel="1,1" output="48" pads_begin="0,0" pads_end="0,0" quantization_level="I8" strides="1,1" />
			<input>
				<port id="0">
					<dim>1</dim>
					<dim>192</dim>
					<dim>5</dim>
					<dim>5</dim>
				</port>
			</input>
			<output>
				<port id="1">
					<dim>1</dim>
					<dim>48</dim>
					<dim>5</dim>
					<dim>5</dim>
				</port>
			</output>
			<blobs>
				<biases offset="1734812" size="192" />
				<weights offset="1735004" size="36864" />
			</blobs>
		</layer>
		<layer name="features/intermediate_2/Relu" type="ReLU" precision="FP32" id="111">
			<input>
				<port id="0">
					<dim>1</dim>
					<dim>48</dim>
					<dim>5</dim>
					<dim>5</dim>
				</port>
			</input>
			<output>
				<port id="1">
					<dim>1</dim>
					<dim>48</dim>
					<dim>5</dim>
					<dim>5</dim>
				</port>
			</output>
		</layer>
		<layer name="features/feature_map_2/Conv2D" type="Convolution" precision="FP32" id="112">
			<data auto_pad="same_upper" dilations="1,1" group="1" kernel="3,3" output="96" pads_begin="1,1" pads_end="1,1" quantization_level="I8" strides="2,2" />
			<input>
				<port id="0">
					<dim>1</dim>
					<dim>48</dim>
					<dim>5</dim>
					<dim>5</dim>
				</port>
			</input>
			<output>
				<port id="1">
					<dim>1</dim>
					<dim>96</dim>
					<dim>3</dim>
					<dim>3</dim>
				</port>
			</output>
			<blobs>
				<biases offset="1771868" size="384" />
				<weights offset="1772252" size="165888" />
			</blobs>
		</layer>
		<layer name="features/feature_map_2/Relu" type="ReLU" precision="FP32" id="113">
			<input>
				<port id="0">
					<dim>1</dim>
					<dim>96</dim>
					<dim>3</dim>
					<dim>3</dim>
				</port>
			</input>
			<output>
				<port id="1">
					<dim>1</dim>
					<dim>96</dim>
					<dim>3</dim>
					<dim>3</dim>
				</port>
			</output>
		</layer>
		<layer name="features/intermediate_3/Conv2D" type="Convolution" precision="FP32" id="114">
			<data auto_pad="same_upper" dilations="1,1" group="1" kernel="1,1" output="48" pads_begin="0,0" pads_end="0,0" quantization_level="I8" strides="1,1" />
			<input>
				<port id="0">
					<dim>1</dim>
					<dim>96</dim>
					<dim>3</dim>
					<dim>3</dim>
				</port>
			</input>
			<output>
				<port id="1">
					<dim>1</dim>
					<dim>48</dim>
					<dim>3</dim>
					<dim>3</dim>
				</port>
			</output>
			<blobs>
				<biases offset="1938140" size="192" />
				<weights offset="1938332" size="18432" />
			</blobs>
		</layer>
		<layer name="features/intermediate_3/Relu" type="ReLU" precision="FP32" id="115">
			<input>
				<port id="0">
					<dim>1</dim>
					<dim>48</dim>
					<dim>3</dim>
					<dim>3</dim>
				</port>
			</input>
			<output>
				<port id="1">
					<dim>1</dim>
					<dim>48</dim>
					<dim>3</dim>
					<dim>3</dim>
				</port>
			</output>
		</layer>
		<layer name="features/feature_map_3/Conv2D" type="Convolution" precision="FP32" id="116">
			<data auto_pad="same_upper" dilations="1,1" group="1" kernel="3,3" output="96" pads_begin="1,1" pads_end="1,1" quantization_level="I8" strides="2,2" />
			<input>
				<port id="0">
					<dim>1</dim>
					<dim>48</dim>
					<dim>3</dim>
					<dim>3</dim>
				</port>
			</input>
			<output>
				<port id="1">
					<dim>1</dim>
					<dim>96</dim>
					<dim>2</dim>
					<dim>2</dim>
				</port>
			</output>
			<blobs>
				<biases offset="1956764" size="384" />
				<weights offset="1957148" size="165888" />
			</blobs>
		</layer>
		<layer name="features/feature_map_3/Relu" type="ReLU" precision="FP32" id="117">
			<input>
				<port id="0">
					<dim>1</dim>
					<dim>96</dim>
					<dim>2</dim>
					<dim>2</dim>
				</port>
			</input>
			<output>
				<port id="1">
					<dim>1</dim>
					<dim>96</dim>
					<dim>2</dim>
					<dim>2</dim>
				</port>
			</output>
		</layer>
		<layer name="features/intermediate_4/Conv2D" type="Convolution" precision="FP32" id="118">
			<data auto_pad="same_upper" dilations="1,1" group="1" kernel="1,1" output="24" pads_begin="0,0" pads_end="0,0" quantization_level="I8" strides="1,1" />
			<input>
				<port id="0">
					<dim>1</dim>
					<dim>96</dim>
					<dim>2</dim>
					<dim>2</dim>
				</port>
			</input>
			<output>
				<port id="1">
					<dim>1</dim>
					<dim>24</dim>
					<dim>2</dim>
					<dim>2</dim>
				</port>
			</output>
			<blobs>
				<biases offset="2123036" size="96" />
				<weights offset="2123132" size="9216" />
			</blobs>
		</layer>
		<layer name="features/intermediate_4/Relu" type="ReLU" precision="FP32" id="119">
			<input>
				<port id="0">
					<dim>1</dim>
					<dim>24</dim>
					<dim>2</dim>
					<dim>2</dim>
				</port>
			</input>
			<output>
				<port id="1">
					<dim>1</dim>
					<dim>24</dim>
					<dim>2</dim>
					<dim>2</dim>
				</port>
			</output>
		</layer>
		<layer name="features/feature_map_4/Conv2D" type="Convolution" precision="FP32" id="120">
			<data auto_pad="same_upper" dilations="1,1" group="1" kernel="3,3" output="48" pads_begin="0,0" pads_end="1,1" quantization_level="I8" strides="2,2" />
			<input>
				<port id="0">
					<dim>1</dim>
					<dim>24</dim>
					<dim>2</dim>
					<dim>2</dim>
				</port>
			</input>
			<output>
				<port id="1">
					<dim>1</dim>
					<dim>48</dim>
					<dim>1</dim>
					<dim>1</dim>
				</port>
			</output>
			<blobs>
				<biases offset="2132348" size="192" />
				<weights offset="2132540" size="41472" />
			</blobs>
		</layer>
		<layer name="features/feature_map_4/Relu" type="ReLU" precision="FP32" id="121">
			<input>
				<port id="0">
					<dim>1</dim>
					<dim>48</dim>
					<dim>1</dim>
					<dim>1</dim>
				</port>
			</input>
			<output>
				<port id="1">
					<dim>1</dim>
					<dim>48</dim>
					<dim>1</dim>
					<dim>1</dim>
				</port>
			</output>
		</layer>
		<layer name="SSD/ssd_head_5/feature_map_4_mbox_loc/Conv2D" type="Convolution" precision="FP32" id="122">
			<data auto_pad="same_upper" dilations="1,1" group="1" kernel="3,3" output="12" pads_begin="1,1" pads_end="1,1" quantization_level="I8" strides="1,1" />
			<input>
				<port id="0">
					<dim>1</dim>
					<dim>48</dim>
					<dim>1</dim>
					<dim>1</dim>
				</port>
			</input>
			<output>
				<port id="1">
					<dim>1</dim>
					<dim>12</dim>
					<dim>1</dim>
					<dim>1</dim>
				</port>
			</output>
			<blobs>
				<biases offset="2174012" size="48" />
				<weights offset="2174060" size="20736" />
			</blobs>
		</layer>
		<layer name="SSD/ssd_head_5/feature_map_4_mbox_loc/Conv2D/Transpose" type="Permute" precision="FP32" id="123">
			<data order="0,2,3,1" />
			<input>
				<port id="0">
					<dim>1</dim>
					<dim>12</dim>
					<dim>1</dim>
					<dim>1</dim>
				</port>
			</input>
			<output>
				<port id="1">
					<dim>1</dim>
					<dim>1</dim>
					<dim>1</dim>
					<dim>12</dim>
				</port>
			</output>
		</layer>
		<layer name="SSD/ssd_head_5/feature_map_4_mbox_conf/Conv2D" type="Convolution" precision="FP32" id="124">
			<data auto_pad="same_upper" dilations="1,1" group="1" kernel="3,3" output="9" pads_begin="1,1" pads_end="1,1" quantization_level="I8" strides="1,1" />
			<input>
				<port id="0">
					<dim>1</dim>
					<dim>48</dim>
					<dim>1</dim>
					<dim>1</dim>
				</port>
			</input>
			<output>
				<port id="1">
					<dim>1</dim>
					<dim>9</dim>
					<dim>1</dim>
					<dim>1</dim>
				</port>
			</output>
			<blobs>
				<biases offset="2194796" size="36" />
				<weights offset="2194832" size="15552" />
			</blobs>
		</layer>
		<layer name="SSD/ssd_head_5/feature_map_4_mbox_conf/Conv2D/Transpose" type="Permute" precision="FP32" id="125">
			<data order="0,2,3,1" />
			<input>
				<port id="0">
					<dim>1</dim>
					<dim>9</dim>
					<dim>1</dim>
					<dim>1</dim>
				</port>
			</input>
			<output>
				<port id="1">
					<dim>1</dim>
					<dim>1</dim>
					<dim>1</dim>
					<dim>9</dim>
				</port>
			</output>
		</layer>
		<layer name="SSD/ssd_head_4/feature_map_3_mbox_loc/Conv2D" type="Convolution" precision="FP32" id="126">
			<data auto_pad="same_upper" dilations="1,1" group="1" kernel="3,3" output="8" pads_begin="1,1" pads_end="1,1" quantization_level="I8" strides="1,1" />
			<input>
				<port id="0">
					<dim>1</dim>
					<dim>96</dim>
					<dim>2</dim>
					<dim>2</dim>
				</port>
			</input>
			<output>
				<port id="1">
					<dim>1</dim>
					<dim>8</dim>
					<dim>2</dim>
					<dim>2</dim>
				</port>
			</output>
			<blobs>
				<biases offset="2210384" size="32" />
				<weights offset="2210416" size="27648" />
			</blobs>
		</layer>
		<layer name="SSD/ssd_head_4/feature_map_3_mbox_loc/Conv2D/Transpose" type="Permute" precision="FP32" id="127">
			<data order="0,2,3,1" />
			<input>
				<port id="0">
					<dim>1</dim>
					<dim>8</dim>
					<dim>2</dim>
					<dim>2</dim>
				</port>
			</input>
			<output>
				<port id="1">
					<dim>1</dim>
					<dim>2</dim>
					<dim>2</dim>
					<dim>8</dim>
				</port>
			</output>
		</layer>
		<layer name="SSD/ssd_head_4/feature_map_3_mbox_conf/Conv2D" type="Convolution" precision="FP32" id="128">
			<data auto_pad="same_upper" dilations="1,1" group="1" kernel="3,3" output="6" pads_begin="1,1" pads_end="1,1" quantization_level="I8" strides="1,1" />
			<input>
				<port id="0">
					<dim>1</dim>
					<dim>96</dim>
					<dim>2</dim>
					<dim>2</dim>
				</port>
			</input>
			<output>
				<port id="1">
					<dim>1</dim>
					<dim>6</dim>
					<dim>2</dim>
					<dim>2</dim>
				</port>
			</output>
			<blobs>
				<biases offset="2238064" size="24" />
				<weights offset="2238088" size="20736" />
			</blobs>
		</layer>
		<layer name="SSD/ssd_head_4/feature_map_3_mbox_conf/Conv2D/Transpose" type="Permute" precision="FP32" id="129">
			<data order="0,2,3,1" />
			<input>
				<port id="0">
					<dim>1</dim>
					<dim>6</dim>
					<dim>2</dim>
					<dim>2</dim>
				</port>
			</input>
			<output>
				<port id="1">
					<dim>1</dim>
					<dim>2</dim>
					<dim>2</dim>
					<dim>6</dim>
				</port>
			</output>
		</layer>
		<layer name="SSD/ssd_head_3/feature_map_2_mbox_loc/Conv2D" type="Convolution" precision="FP32" id="130">
			<data auto_pad="same_upper" dilations="1,1" group="1" kernel="3,3" output="8" pads_begin="1,1" pads_end="1,1" quantization_level="I8" strides="1,1" />
			<input>
				<port id="0">
					<dim>1</dim>
					<dim>96</dim>
					<dim>3</dim>
					<dim>3</dim>
				</port>
			</input>
			<output>
				<port id="1">
					<dim>1</dim>
					<dim>8</dim>
					<dim>3</dim>
					<dim>3</dim>
				</port>
			</output>
			<blobs>
				<biases offset="2258824" size="32" />
				<weights offset="2258856" size="27648" />
			</blobs>
		</layer>
		<layer name="SSD/ssd_head_3/feature_map_2_mbox_loc/Conv2D/Transpose" type="Permute" precision="FP32" id="131">
			<data order="0,2,3,1" />
			<input>
				<port id="0">
					<dim>1</dim>
					<dim>8</dim>
					<dim>3</dim>
					<dim>3</dim>
				</port>
			</input>
			<output>
				<port id="1">
					<dim>1</dim>
					<dim>3</dim>
					<dim>3</dim>
					<dim>8</dim>
				</port>
			</output>
		</layer>
		<layer name="SSD/ssd_head_3/feature_map_2_mbox_conf/Conv2D" type="Convolution" precision="FP32" id="132">
			<data auto_pad="same_upper" dilations="1,1" group="1" kernel="3,3" output="6" pads_begin="1,1" pads_end="1,1" quantization_level="I8" strides="1,1" />
			<input>
				<port id="0">
					<dim>1</dim>
					<dim>96</dim>
					<dim>3</dim>
					<dim>3</dim>
				</port>
			</input>
			<output>
				<port id="1">
					<dim>1</dim>
					<dim>6</dim>
					<dim>3</dim>
					<dim>3</dim>
				</port>
			</output>
			<blobs>
				<biases offset="2286504" size="24" />
				<weights offset="2286528" size="20736" />
			</blobs>
		</layer>
		<layer name="SSD/ssd_head_3/feature_map_2_mbox_conf/Conv2D/Transpose" type="Permute" precision="FP32" id="133">
			<data order="0,2,3,1" />
			<input>
				<port id="0">
					<dim>1</dim>
					<dim>6</dim>
					<dim>3</dim>
					<dim>3</dim>
				</port>
			</input>
			<output>
				<port id="1">
					<dim>1</dim>
					<dim>3</dim>
					<dim>3</dim>
					<dim>6</dim>
				</port>
			</output>
		</layer>
		<layer name="SSD/ssd_head_2/feature_map_1_mbox_loc/Conv2D" type="Convolution" precision="FP32" id="134">
			<data auto_pad="same_upper" dilations="1,1" group="1" kernel="3,3" output="12" pads_begin="1,1" pads_end="1,1" quantization_level="I8" strides="1,1" />
			<input>
				<port id="0">
					<dim>1</dim>
					<dim>192</dim>
					<dim>5</dim>
					<dim>5</dim>
				</port>
			</input>
			<output>
				<port id="1">
					<dim>1</dim>
					<dim>12</dim>
					<dim>5</dim>
					<dim>5</dim>
				</port>
			</output>
			<blobs>
				<biases offset="2307264" size="48" />
				<weights offset="2307312" size="82944" />
			</blobs>
		</layer>
		<layer name="SSD/ssd_head_2/feature_map_1_mbox_loc/Conv2D/Transpose" type="Permute" precision="FP32" id="135">
			<data order="0,2,3,1" />
			<input>
				<port id="0">
					<dim>1</dim>
					<dim>12</dim>
					<dim>5</dim>
					<dim>5</dim>
				</port>
			</input>
			<output>
				<port id="1">
					<dim>1</dim>
					<dim>5</dim>
					<dim>5</dim>
					<dim>12</dim>
				</port>
			</output>
		</layer>
		<layer name="SSD/ssd_head_2/feature_map_1_mbox_conf/Conv2D" type="Convolution" precision="FP32" id="136">
			<data auto_pad="same_upper" dilations="1,1" group="1" kernel="3,3" output="9" pads_begin="1,1" pads_end="1,1" quantization_level="I8" strides="1,1" />
			<input>
				<port id="0">
					<dim>1</dim>
					<dim>192</dim>
					<dim>5</dim>
					<dim>5</dim>
				</port>
			</input>
			<output>
				<port id="1">
					<dim>1</dim>
					<dim>9</dim>
					<dim>5</dim>
					<dim>5</dim>
				</port>
			</output>
			<blobs>
				<biases offset="2390256" size="36" />
				<weights offset="2390292" size="62208" />
			</blobs>
		</layer>
		<layer name="SSD/ssd_head_2/feature_map_1_mbox_conf/Conv2D/Transpose" type="Permute" precision="FP32" id="137">
			<data order="0,2,3,1" />
			<input>
				<port id="0">
					<dim>1</dim>
					<dim>9</dim>
					<dim>5</dim>
					<dim>5</dim>
				</port>
			</input>
			<output>
				<port id="1">
					<dim>1</dim>
					<dim>5</dim>
					<dim>5</dim>
					<dim>9</dim>
				</port>
			</output>
		</layer>
		<layer name="SSD/ssd_head_1/layer_18/output_mbox_loc/Conv2D" type="Convolution" precision="FP32" id="138">
			<data auto_pad="same_upper" dilations="1,1" group="1" kernel="3,3" output="12" pads_begin="1,1" pads_end="1,1" quantization_level="I8" strides="1,1" />
			<input>
				<port id="0">
					<dim>1</dim>
					<dim>112</dim>
					<dim>10</dim>
					<dim>10</dim>
				</port>
			</input>
			<output>
				<port id="1">
					<dim>1</dim>
					<dim>12</dim>
					<dim>10</dim>
					<dim>10</dim>
				</port>
			</output>
			<blobs>
				<biases offset="2452500" size="48" />
				<weights offset="2452548" size="48384" />
			</blobs>
		</layer>
		<layer name="SSD/ssd_head_1/layer_18/output_mbox_loc/Conv2D/Transpose" type="Permute" precision="FP32" id="139">
			<data order="0,2,3,1" />
			<input>
				<port id="0">
					<dim>1</dim>
					<dim>12</dim>
					<dim>10</dim>
					<dim>10</dim>
				</port>
			</input>
			<output>
				<port id="1">
					<dim>1</dim>
					<dim>10</dim>
					<dim>10</dim>
					<dim>12</dim>
				</port>
			</output>
		</layer>
		<layer name="SSD/ssd_head_1/layer_18/output_mbox_conf/Conv2D" type="Convolution" precision="FP32" id="140">
			<data auto_pad="same_upper" dilations="1,1" group="1" kernel="3,3" output="9" pads_begin="1,1" pads_end="1,1" quantization_level="I8" strides="1,1" />
			<input>
				<port id="0">
					<dim>1</dim>
					<dim>112</dim>
					<dim>10</dim>
					<dim>10</dim>
				</port>
			</input>
			<output>
				<port id="1">
					<dim>1</dim>
					<dim>9</dim>
					<dim>10</dim>
					<dim>10</dim>
				</port>
			</output>
			<blobs>
				<biases offset="2500932" size="36" />
				<weights offset="2500968" size="36288" />
			</blobs>
		</layer>
		<layer name="SSD/ssd_head_1/layer_18/output_mbox_conf/Conv2D/Transpose" type="Permute" precision="FP32" id="141">
			<data order="0,2,3,1" />
			<input>
				<port id="0">
					<dim>1</dim>
					<dim>9</dim>
					<dim>10</dim>
					<dim>10</dim>
				</port>
			</input>
			<output>
				<port id="1">
					<dim>1</dim>
					<dim>10</dim>
					<dim>10</dim>
					<dim>9</dim>
				</port>
			</output>
		</layer>
		<layer name="DetectionOutput_Reshape_priors_/Output_0/Data__const" type="Const" precision="FP32" id="142">
			<output>
				<port id="0">
					<dim>1</dim>
					<dim>2</dim>
					<dim>4504</dim>
				</port>
			</output>
			<blobs>
				<custom offset="2537256" size="36032" />
			</blobs>
		</layer>
		<layer name="Copy_1225/Output_0/Data__const" type="Const" precision="I32" id="143">
			<output>
				<port id="0">
					<dim>2</dim>
				</port>
			</output>
			<blobs>
				<custom offset="2573288" size="8" />
			</blobs>
		</layer>
		<layer name="Copy_1225/Output_0/Data_3017_const" type="Const" precision="I32" id="144">
			<output>
				<port id="0">
					<dim>2</dim>
				</port>
			</output>
			<blobs>
				<custom offset="2573296" size="8" />
			</blobs>
		</layer>
		<layer name="1243/Output_0/Data__const" type="Const" precision="I32" id="145">
			<output>
				<port id="0">
					<dim>2</dim>
				</port>
			</output>
			<blobs>
				<custom offset="2573304" size="8" />
			</blobs>
		</layer>
		<layer name="SSD/ssd_head_5/Flatten_1/flatten/Reshape" type="Reshape" precision="FP32" id="146">
			<data dim="" />
			<input>
				<port id="0">
					<dim>1</dim>
					<dim>1</dim>
					<dim>1</dim>
					<dim>9</dim>
				</port>
				<port id="1">
					<dim>2</dim>
				</port>
			</input>
			<output>
				<port id="2">
					<dim>1</dim>
					<dim>9</dim>
				</port>
			</output>
		</layer>
		<layer name="1242/Output_0/Data__const" type="Const" precision="I32" id="147">
			<output>
				<port id="0">
					<dim>2</dim>
				</port>
			</output>
			<blobs>
				<custom offset="2573312" size="8" />
			</blobs>
		</layer>
		<layer name="SSD/ssd_head_2/Flatten_1/flatten/Reshape" type="Reshape" precision="FP32" id="148">
			<data dim="" />
			<input>
				<port id="0">
					<dim>1</dim>
					<dim>5</dim>
					<dim>5</dim>
					<dim>9</dim>
				</port>
				<port id="1">
					<dim>2</dim>
				</port>
			</input>
			<output>
				<port id="2">
					<dim>1</dim>
					<dim>225</dim>
				</port>
			</output>
		</layer>
		<layer name="1241/Output_0/Data__const" type="Const" precision="I32" id="149">
			<output>
				<port id="0">
					<dim>2</dim>
				</port>
			</output>
			<blobs>
				<custom offset="2573320" size="8" />
			</blobs>
		</layer>
		<layer name="SSD/ssd_head_4/Flatten/flatten/Reshape" type="Reshape" precision="FP32" id="150">
			<data dim="" />
			<input>
				<port id="0">
					<dim>1</dim>
					<dim>2</dim>
					<dim>2</dim>
					<dim>8</dim>
				</port>
				<port id="1">
					<dim>2</dim>
				</port>
			</input>
			<output>
				<port id="2">
					<dim>1</dim>
					<dim>32</dim>
				</port>
			</output>
		</layer>
		<layer name="1240/Output_0/Data__const" type="Const" precision="I32" id="151">
			<output>
				<port id="0">
					<dim>2</dim>
				</port>
			</output>
			<blobs>
				<custom offset="2573328" size="8" />
			</blobs>
		</layer>
		<layer name="SSD/ssd_head_2/Flatten/flatten/Reshape" type="Reshape" precision="FP32" id="152">
			<data dim="" />
			<input>
				<port id="0">
					<dim>1</dim>
					<dim>5</dim>
					<dim>5</dim>
					<dim>12</dim>
				</port>
				<port id="1">
					<dim>2</dim>
				</port>
			</input>
			<output>
				<port id="2">
					<dim>1</dim>
					<dim>300</dim>
				</port>
			</output>
		</layer>
		<layer name="1239/Output_0/Data__const" type="Const" precision="I32" id="153">
			<output>
				<port id="0">
					<dim>2</dim>
				</port>
			</output>
			<blobs>
				<custom offset="2573336" size="8" />
			</blobs>
		</layer>
		<layer name="SSD/ssd_head_1/Flatten/flatten/Reshape" type="Reshape" precision="FP32" id="154">
			<data dim="" />
			<input>
				<port id="0">
					<dim>1</dim>
					<dim>10</dim>
					<dim>10</dim>
					<dim>12</dim>
				</port>
				<port id="1">
					<dim>2</dim>
				</port>
			</input>
			<output>
				<port id="2">
					<dim>1</dim>
					<dim>1200</dim>
				</port>
			</output>
		</layer>
		<layer name="1238/Output_0/Data__const" type="Const" precision="I32" id="155">
			<output>
				<port id="0">
					<dim>2</dim>
				</port>
			</output>
			<blobs>
				<custom offset="2573344" size="8" />
			</blobs>
		</layer>
		<layer name="SSD/ssd_head/Flatten/flatten/Reshape" type="Reshape" precision="FP32" id="156">
			<data dim="" />
			<input>
				<port id="0">
					<dim>1</dim>
					<dim>19</dim>
					<dim>19</dim>
					<dim>8</dim>
				</port>
				<port id="1">
					<dim>2</dim>
				</port>
			</input>
			<output>
				<port id="2">
					<dim>1</dim>
					<dim>2888</dim>
				</port>
			</output>
		</layer>
		<layer name="1237/Output_0/Data__const" type="Const" precision="I32" id="157">
			<output>
				<port id="0">
					<dim>2</dim>
				</port>
			</output>
			<blobs>
				<custom offset="2573352" size="8" />
			</blobs>
		</layer>
		<layer name="SSD/ssd_head_4/Flatten_1/flatten/Reshape" type="Reshape" precision="FP32" id="158">
			<data dim="" />
			<input>
				<port id="0">
					<dim>1</dim>
					<dim>2</dim>
					<dim>2</dim>
					<dim>6</dim>
				</port>
				<port id="1">
					<dim>2</dim>
				</port>
			</input>
			<output>
				<port id="2">
					<dim>1</dim>
					<dim>24</dim>
				</port>
			</output>
		</layer>
		<layer name="1236/Output_0/Data__const" type="Const" precision="I32" id="159">
			<output>
				<port id="0">
					<dim>2</dim>
				</port>
			</output>
			<blobs>
				<custom offset="2573360" size="8" />
			</blobs>
		</layer>
		<layer name="SSD/ssd_head/Flatten_1/flatten/Reshape" type="Reshape" precision="FP32" id="160">
			<data dim="" />
			<input>
				<port id="0">
					<dim>1</dim>
					<dim>19</dim>
					<dim>19</dim>
					<dim>6</dim>
				</port>
				<port id="1">
					<dim>2</dim>
				</port>
			</input>
			<output>
				<port id="2">
					<dim>1</dim>
					<dim>2166</dim>
				</port>
			</output>
		</layer>
		<layer name="1235/Output_0/Data__const" type="Const" precision="I32" id="161">
			<output>
				<port id="0">
					<dim>2</dim>
				</port>
			</output>
			<blobs>
				<custom offset="2573368" size="8" />
			</blobs>
		</layer>
		<layer name="SSD/ssd_head_3/Flatten/flatten/Reshape" type="Reshape" precision="FP32" id="162">
			<data dim="" />
			<input>
				<port id="0">
					<dim>1</dim>
					<dim>3</dim>
					<dim>3</dim>
					<dim>8</dim>
				</port>
				<port id="1">
					<dim>2</dim>
				</port>
			</input>
			<output>
				<port id="2">
					<dim>1</dim>
					<dim>72</dim>
				</port>
			</output>
		</layer>
		<layer name="1234/Output_0/Data__const" type="Const" precision="I32" id="163">
			<output>
				<port id="0">
					<dim>2</dim>
				</port>
			</output>
			<blobs>
				<custom offset="2573376" size="8" />
			</blobs>
		</layer>
		<layer name="SSD/ssd_head_3/Flatten_1/flatten/Reshape" type="Reshape" precision="FP32" id="164">
			<data dim="" />
			<input>
				<port id="0">
					<dim>1</dim>
					<dim>3</dim>
					<dim>3</dim>
					<dim>6</dim>
				</port>
				<port id="1">
					<dim>2</dim>
				</port>
			</input>
			<output>
				<port id="2">
					<dim>1</dim>
					<dim>54</dim>
				</port>
			</output>
		</layer>
		<layer name="1233/Output_0/Data__const" type="Const" precision="I32" id="165">
			<output>
				<port id="0">
					<dim>2</dim>
				</port>
			</output>
			<blobs>
				<custom offset="2573384" size="8" />
			</blobs>
		</layer>
		<layer name="SSD/ssd_head_5/Flatten/flatten/Reshape" type="Reshape" precision="FP32" id="166">
			<data dim="" />
			<input>
				<port id="0">
					<dim>1</dim>
					<dim>1</dim>
					<dim>1</dim>
					<dim>12</dim>
				</port>
				<port id="1">
					<dim>2</dim>
				</port>
			</input>
			<output>
				<port id="2">
					<dim>1</dim>
					<dim>12</dim>
				</port>
			</output>
		</layer>
		<layer name="SSD/concat_reshape_softmax/mbox_loc" type="Concat" precision="FP32" id="167">
			<data axis="1" />
			<input>
				<port id="0">
					<dim>1</dim>
					<dim>2888</dim>
				</port>
				<port id="1">
					<dim>1</dim>
					<dim>1200</dim>
				</port>
				<port id="2">
					<dim>1</dim>
					<dim>300</dim>
				</port>
				<port id="3">
					<dim>1</dim>
					<dim>72</dim>
				</port>
				<port id="4">
					<dim>1</dim>
					<dim>32</dim>
				</port>
				<port id="5">
					<dim>1</dim>
					<dim>12</dim>
				</port>
			</input>
			<output>
				<port id="6">
					<dim>1</dim>
					<dim>4504</dim>
				</port>
			</output>
		</layer>
		<layer name="SSD/concat_reshape_softmax/mbox_loc_final" type="Reshape" precision="FP32" id="168">
			<data dim="" />
			<input>
				<port id="0">
					<dim>1</dim>
					<dim>4504</dim>
				</port>
				<port id="1">
					<dim>3</dim>
				</port>
			</input>
			<output>
				<port id="2">
					<dim>1</dim>
					<dim>1126</dim>
					<dim>4</dim>
				</port>
			</output>
		</layer>
		<layer name="DetectionOutput_Reshape_loc_" type="Reshape" precision="FP32" id="169">
			<data dim="" />
			<input>
				<port id="0">
					<dim>1</dim>
					<dim>1126</dim>
					<dim>4</dim>
				</port>
				<port id="1">
					<dim>2</dim>
				</port>
			</input>
			<output>
				<port id="2">
					<dim>1</dim>
					<dim>4504</dim>
				</port>
			</output>
		</layer>
		<layer name="1232/Output_0/Data__const" type="Const" precision="I32" id="170">
			<output>
				<port id="0">
					<dim>2</dim>
				</port>
			</output>
			<blobs>
				<custom offset="2573392" size="8" />
			</blobs>
		</layer>
		<layer name="SSD/ssd_head_1/Flatten_1/flatten/Reshape" type="Reshape" precision="FP32" id="171">
			<data dim="" />
			<input>
				<port id="0">
					<dim>1</dim>
					<dim>10</dim>
					<dim>10</dim>
					<dim>9</dim>
				</port>
				<port id="1">
					<dim>2</dim>
				</port>
			</input>
			<output>
				<port id="2">
					<dim>1</dim>
					<dim>900</dim>
				</port>
			</output>
		</layer>
		<layer name="SSD/concat_reshape_softmax/mbox_conf" type="Concat" precision="FP32" id="172">
			<data axis="1" />
			<input>
				<port id="0">
					<dim>1</dim>
					<dim>2166</dim>
				</port>
				<port id="1">
					<dim>1</dim>
					<dim>900</dim>
				</port>
				<port id="2">
					<dim>1</dim>
					<dim>225</dim>
				</port>
				<port id="3">
					<dim>1</dim>
					<dim>54</dim>
				</port>
				<port id="4">
					<dim>1</dim>
					<dim>24</dim>
				</port>
				<port id="5">
					<dim>1</dim>
					<dim>9</dim>
				</port>
			</input>
			<output>
				<port id="6">
					<dim>1</dim>
					<dim>3378</dim>
				</port>
			</output>
		</layer>
		<layer name="SSD/concat_reshape_softmax/mbox_conf_logits" type="Reshape" precision="FP32" id="173">
			<data dim="" />
			<input>
				<port id="0">
					<dim>1</dim>
					<dim>3378</dim>
				</port>
				<port id="1">
					<dim>3</dim>
				</port>
			</input>
			<output>
				<port id="2">
					<dim>1</dim>
					<dim>1126</dim>
					<dim>3</dim>
				</port>
			</output>
		</layer>
		<layer name="SSD/concat_reshape_softmax/Reshape" type="Reshape" precision="FP32" id="174">
			<data dim="" />
			<input>
				<port id="0">
					<dim>1</dim>
					<dim>1126</dim>
					<dim>3</dim>
				</port>
				<port id="1">
					<dim>2</dim>
				</port>
			</input>
			<output>
				<port id="2">
					<dim>1126</dim>
					<dim>3</dim>
				</port>
			</output>
		</layer>
		<layer name="SSD/concat_reshape_softmax/Softmax" type="SoftMax" precision="FP32" id="175">
			<data axis="1" />
			<input>
				<port id="0">
					<dim>1126</dim>
					<dim>3</dim>
				</port>
			</input>
			<output>
				<port id="1">
					<dim>1126</dim>
					<dim>3</dim>
				</port>
			</output>
		</layer>
		<layer name="SSD/concat_reshape_softmax/mbox_conf_final" type="Reshape" precision="FP32" id="176">
			<data dim="" />
			<input>
				<port id="0">
					<dim>1126</dim>
					<dim>3</dim>
				</port>
				<port id="1">
					<dim>3</dim>
				</port>
			</input>
			<output>
				<port id="2">
					<dim>1</dim>
					<dim>1126</dim>
					<dim>3</dim>
				</port>
			</output>
		</layer>
		<layer name="DetectionOutput_Reshape_conf_" type="Reshape" precision="FP32" id="177">
			<data dim="" />
			<input>
				<port id="0">
					<dim>1</dim>
					<dim>1126</dim>
					<dim>3</dim>
				</port>
				<port id="1">
					<dim>2</dim>
				</port>
			</input>
			<output>
				<port id="2">
					<dim>1</dim>
					<dim>3378</dim>
				</port>
			</output>
		</layer>
		<layer name="DetectionOutput_" type="DetectionOutput" precision="FP32" id="178">
			<data code_type="caffe.PriorBoxParameter.CENTER_SIZE" confidence_threshold="0.01" input_height="1" input_width="1" keep_top_k="200" nms_threshold="0.45" normalized="1" num_classes="3" pad_mode="caffe.ResizeParameter.CONSTANT" resize_mode="caffe.ResizeParameter.WARP" share_location="1" top_k="400" variance_encoded_in_target="0" />
			<input>
				<port id="0">
					<dim>1</dim>
					<dim>4504</dim>
				</port>
				<port id="1">
					<dim>1</dim>
					<dim>3378</dim>
				</port>
				<port id="2">
					<dim>1</dim>
					<dim>2</dim>
					<dim>4504</dim>
				</port>
			</input>
			<output>
				<port id="3">
					<dim>1</dim>
					<dim>1</dim>
					<dim>200</dim>
					<dim>7</dim>
				</port>
			</output>
		</layer>
	</layers>
	<edges>
		<edge from-layer="0" from-port="0" to-layer="168" to-port="1" />
		<edge from-layer="1" from-port="0" to-layer="173" to-port="1" />
		<edge from-layer="2" from-port="0" to-layer="174" to-port="1" />
		<edge from-layer="3" from-port="0" to-layer="176" to-port="1" />
		<edge from-layer="4" from-port="0" to-layer="5" to-port="0" />
		<edge from-layer="5" from-port="1" to-layer="6" to-port="0" />
		<edge from-layer="6" from-port="1" to-layer="7" to-port="0" />
		<edge from-layer="7" from-port="1" to-layer="11" to-port="1" />
		<edge from-layer="7" from-port="1" to-layer="8" to-port="0" />
		<edge from-layer="8" from-port="1" to-layer="9" to-port="0" />
		<edge from-layer="9" from-port="1" to-layer="10" to-port="0" />
		<edge from-layer="10" from-port="1" to-layer="11" to-port="0" />
		<edge from-layer="11" from-port="2" to-layer="12" to-port="0" />
		<edge from-layer="12" from-port="1" to-layer="13" to-port="0" />
		<edge from-layer="13" from-port="1" to-layer="14" to-port="0" />
		<edge from-layer="14" from-port="1" to-layer="15" to-port="0" />
		<edge from-layer="15" from-port="1" to-layer="16" to-port="0" />
		<edge from-layer="16" from-port="1" to-layer="22" to-port="1" />
		<edge from-layer="16" from-port="1" to-layer="17" to-port="0" />
		<edge from-layer="17" from-port="1" to-layer="18" to-port="0" />
		<edge from-layer="18" from-port="1" to-layer="19" to-port="0" />
		<edge from-layer="19" from-port="1" to-layer="20" to-port="0" />
		<edge from-layer="20" from-port="1" to-layer="21" to-port="0" />
		<edge from-layer="21" from-port="1" to-layer="22" to-port="0" />
		<edge from-layer="22" from-port="2" to-layer="23" to-port="0" />
		<edge from-layer="23" from-port="1" to-layer="24" to-port="0" />
		<edge from-layer="24" from-port="1" to-layer="25" to-port="0" />
		<edge from-layer="25" from-port="1" to-layer="26" to-port="0" />
		<edge from-layer="26" from-port="1" to-layer="27" to-port="0" />
		<edge from-layer="27" from-port="1" to-layer="33" to-port="1" />
		<edge from-layer="27" from-port="1" to-layer="28" to-port="0" />
		<edge from-layer="28" from-port="1" to-layer="29" to-port="0" />
		<edge from-layer="29" from-port="1" to-layer="30" to-port="0" />
		<edge from-layer="30" from-port="1" to-layer="31" to-port="0" />
		<edge from-layer="31" from-port="1" to-layer="32" to-port="0" />
		<edge from-layer="32" from-port="1" to-layer="33" to-port="0" />
		<edge from-layer="33" from-port="2" to-layer="39" to-port="1" />
		<edge from-layer="33" from-port="2" to-layer="34" to-port="0" />
		<edge from-layer="34" from-port="1" to-layer="35" to-port="0" />
		<edge from-layer="35" from-port="1" to-layer="36" to-port="0" />
		<edge from-layer="36" from-port="1" to-layer="37" to-port="0" />
		<edge from-layer="37" from-port="1" to-layer="38" to-port="0" />
		<edge from-layer="38" from-port="1" to-layer="39" to-port="0" />
		<edge from-layer="39" from-port="2" to-layer="40" to-port="0" />
		<edge from-layer="40" from-port="1" to-layer="41" to-port="0" />
		<edge from-layer="41" from-port="1" to-layer="42" to-port="0" />
		<edge from-layer="42" from-port="1" to-layer="43" to-port="0" />
		<edge from-layer="43" from-port="1" to-layer="44" to-port="0" />
		<edge from-layer="44" from-port="1" to-layer="50" to-port="1" />
		<edge from-layer="44" from-port="1" to-layer="45" to-port="0" />
		<edge from-layer="45" from-port="1" to-layer="46" to-port="0" />
		<edge from-layer="46" from-port="1" to-layer="47" to-port="0" />
		<edge from-layer="47" from-port="1" to-layer="48" to-port="0" />
		<edge from-layer="48" from-port="1" to-layer="49" to-port="0" />
		<edge from-layer="49" from-port="1" to-layer="50" to-port="0" />
		<edge from-layer="50" from-port="2" to-layer="56" to-port="1" />
		<edge from-layer="50" from-port="2" to-layer="51" to-port="0" />
		<edge from-layer="51" from-port="1" to-layer="52" to-port="0" />
		<edge from-layer="52" from-port="1" to-layer="53" to-port="0" />
		<edge from-layer="53" from-port="1" to-layer="54" to-port="0" />
		<edge from-layer="54" from-port="1" to-layer="55" to-port="0" />
		<edge from-layer="55" from-port="1" to-layer="56" to-port="0" />
		<edge from-layer="56" from-port="2" to-layer="62" to-port="1" />
		<edge from-layer="56" from-port="2" to-layer="57" to-port="0" />
		<edge from-layer="57" from-port="1" to-layer="58" to-port="0" />
		<edge from-layer="58" from-port="1" to-layer="59" to-port="0" />
		<edge from-layer="59" from-port="1" to-layer="60" to-port="0" />
		<edge from-layer="60" from-port="1" to-layer="61" to-port="0" />
		<edge from-layer="61" from-port="1" to-layer="62" to-port="0" />
		<edge from-layer="62" from-port="2" to-layer="63" to-port="0" />
		<edge from-layer="63" from-port="1" to-layer="64" to-port="0" />
		<edge from-layer="64" from-port="1" to-layer="65" to-port="0" />
		<edge from-layer="65" from-port="1" to-layer="66" to-port="0" />
		<edge from-layer="66" from-port="1" to-layer="67" to-port="0" />
		<edge from-layer="67" from-port="1" to-layer="73" to-port="1" />
		<edge from-layer="67" from-port="1" to-layer="68" to-port="0" />
		<edge from-layer="68" from-port="1" to-layer="69" to-port="0" />
		<edge from-layer="69" from-port="1" to-layer="70" to-port="0" />
		<edge from-layer="70" from-port="1" to-layer="71" to-port="0" />
		<edge from-layer="71" from-port="1" to-layer="72" to-port="0" />
		<edge from-layer="72" from-port="1" to-layer="73" to-port="0" />
		<edge from-layer="73" from-port="2" to-layer="79" to-port="1" />
		<edge from-layer="73" from-port="2" to-layer="74" to-port="0" />
		<edge from-layer="74" from-port="1" to-layer="75" to-port="0" />
		<edge from-layer="75" from-port="1" to-layer="76" to-port="0" />
		<edge from-layer="76" from-port="1" to-layer="77" to-port="0" />
		<edge from-layer="77" from-port="1" to-layer="78" to-port="0" />
		<edge from-layer="78" from-port="1" to-layer="79" to-port="0" />
		<edge from-layer="79" from-port="2" to-layer="84" to-port="0" />
		<edge from-layer="79" from-port="2" to-layer="82" to-port="0" />
		<edge from-layer="79" from-port="2" to-layer="80" to-port="0" />
		<edge from-layer="80" from-port="1" to-layer="81" to-port="0" />
		<edge from-layer="81" from-port="1" to-layer="156" to-port="0" />
		<edge from-layer="82" from-port="1" to-layer="83" to-port="0" />
		<edge from-layer="83" from-port="1" to-layer="160" to-port="0" />
		<edge from-layer="84" from-port="1" to-layer="85" to-port="0" />
		<edge from-layer="85" from-port="1" to-layer="86" to-port="0" />
		<edge from-layer="86" from-port="1" to-layer="87" to-port="0" />
		<edge from-layer="87" from-port="1" to-layer="88" to-port="0" />
		<edge from-layer="88" from-port="1" to-layer="94" to-port="1" />
		<edge from-layer="88" from-port="1" to-layer="89" to-port="0" />
		<edge from-layer="89" from-port="1" to-layer="90" to-port="0" />
		<edge from-layer="90" from-port="1" to-layer="91" to-port="0" />
		<edge from-layer="91" from-port="1" to-layer="92" to-port="0" />
		<edge from-layer="92" from-port="1" to-layer="93" to-port="0" />
		<edge from-layer="93" from-port="1" to-layer="94" to-port="0" />
		<edge from-layer="94" from-port="2" to-layer="100" to-port="1" />
		<edge from-layer="94" from-port="2" to-layer="95" to-port="0" />
		<edge from-layer="95" from-port="1" to-layer="96" to-port="0" />
		<edge from-layer="96" from-port="1" to-layer="97" to-port="0" />
		<edge from-layer="97" from-port="1" to-layer="98" to-port="0" />
		<edge from-layer="98" from-port="1" to-layer="99" to-port="0" />
		<edge from-layer="99" from-port="1" to-layer="100" to-port="0" />
		<edge from-layer="100" from-port="2" to-layer="101" to-port="0" />
		<edge from-layer="101" from-port="1" to-layer="102" to-port="0" />
		<edge from-layer="102" from-port="1" to-layer="103" to-port="0" />
		<edge from-layer="103" from-port="1" to-layer="104" to-port="0" />
		<edge from-layer="104" from-port="1" to-layer="105" to-port="0" />
		<edge from-layer="105" from-port="1" to-layer="140" to-port="0" />
		<edge from-layer="105" from-port="1" to-layer="138" to-port="0" />
		<edge from-layer="105" from-port="1" to-layer="106" to-port="0" />
		<edge from-layer="106" from-port="1" to-layer="107" to-port="0" />
		<edge from-layer="107" from-port="1" to-layer="108" to-port="0" />
		<edge from-layer="108" from-port="1" to-layer="109" to-port="0" />
		<edge from-layer="109" from-port="1" to-layer="136" to-port="0" />
		<edge from-layer="109" from-port="1" to-layer="134" to-port="0" />
		<edge from-layer="109" from-port="1" to-layer="110" to-port="0" />
		<edge from-layer="110" from-port="1" to-layer="111" to-port="0" />
		<edge from-layer="111" from-port="1" to-layer="112" to-port="0" />
		<edge from-layer="112" from-port="1" to-layer="113" to-port="0" />
		<edge from-layer="113" from-port="1" to-layer="132" to-port="0" />
		<edge from-layer="113" from-port="1" to-layer="130" to-port="0" />
		<edge from-layer="113" from-port="1" to-layer="114" to-port="0" />
		<edge from-layer="114" from-port="1" to-layer="115" to-port="0" />
		<edge from-layer="115" from-port="1" to-layer="116" to-port="0" />
		<edge from-layer="116" from-port="1" to-layer="117" to-port="0" />
		<edge from-layer="117" from-port="1" to-layer="128" to-port="0" />
		<edge from-layer="117" from-port="1" to-layer="126" to-port="0" />
		<edge from-layer="117" from-port="1" to-layer="118" to-port="0" />
		<edge from-layer="118" from-port="1" to-layer="119" to-port="0" />
		<edge from-layer="119" from-port="1" to-layer="120" to-port="0" />
		<edge from-layer="120" from-port="1" to-layer="121" to-port="0" />
		<edge from-layer="121" from-port="1" to-layer="124" to-port="0" />
		<edge from-layer="121" from-port="1" to-layer="122" to-port="0" />
		<edge from-layer="122" from-port="1" to-layer="123" to-port="0" />
		<edge from-layer="123" from-port="1" to-layer="166" to-port="0" />
		<edge from-layer="124" from-port="1" to-layer="125" to-port="0" />
		<edge from-layer="125" from-port="1" to-layer="146" to-port="0" />
		<edge from-layer="126" from-port="1" to-layer="127" to-port="0" />
		<edge from-layer="127" from-port="1" to-layer="150" to-port="0" />
		<edge from-layer="128" from-port="1" to-layer="129" to-port="0" />
		<edge from-layer="129" from-port="1" to-layer="158" to-port="0" />
		<edge from-layer="130" from-port="1" to-layer="131" to-port="0" />
		<edge from-layer="131" from-port="1" to-layer="162" to-port="0" />
		<edge from-layer="132" from-port="1" to-layer="133" to-port="0" />
		<edge from-layer="133" from-port="1" to-layer="164" to-port="0" />
		<edge from-layer="134" from-port="1" to-layer="135" to-port="0" />
		<edge from-layer="135" from-port="1" to-layer="152" to-port="0" />
		<edge from-layer="136" from-port="1" to-layer="137" to-port="0" />
		<edge from-layer="137" from-port="1" to-layer="148" to-port="0" />
		<edge from-layer="138" from-port="1" to-layer="139" to-port="0" />
		<edge from-layer="139" from-port="1" to-layer="154" to-port="0" />
		<edge from-layer="140" from-port="1" to-layer="141" to-port="0" />
		<edge from-layer="141" from-port="1" to-layer="171" to-port="0" />
		<edge from-layer="142" from-port="0" to-layer="178" to-port="2" />
		<edge from-layer="143" from-port="0" to-layer="169" to-port="1" />
		<edge from-layer="144" from-port="0" to-layer="177" to-port="1" />
		<edge from-layer="145" from-port="0" to-layer="146" to-port="1" />
		<edge from-layer="146" from-port="2" to-layer="172" to-port="5" />
		<edge from-layer="147" from-port="0" to-layer="148" to-port="1" />
		<edge from-layer="148" from-port="2" to-layer="172" to-port="2" />
		<edge from-layer="149" from-port="0" to-layer="150" to-port="1" />
		<edge from-layer="150" from-port="2" to-layer="167" to-port="4" />
		<edge from-layer="151" from-port="0" to-layer="152" to-port="1" />
		<edge from-layer="152" from-port="2" to-layer="167" to-port="2" />
		<edge from-layer="153" from-port="0" to-layer="154" to-port="1" />
		<edge from-layer="154" from-port="2" to-layer="167" to-port="1" />
		<edge from-layer="155" from-port="0" to-layer="156" to-port="1" />
		<edge from-layer="156" from-port="2" to-layer="167" to-port="0" />
		<edge from-layer="157" from-port="0" to-layer="158" to-port="1" />
		<edge from-layer="158" from-port="2" to-layer="172" to-port="4" />
		<edge from-layer="159" from-port="0" to-layer="160" to-port="1" />
		<edge from-layer="160" from-port="2" to-layer="172" to-port="0" />
		<edge from-layer="161" from-port="0" to-layer="162" to-port="1" />
		<edge from-layer="162" from-port="2" to-layer="167" to-port="3" />
		<edge from-layer="163" from-port="0" to-layer="164" to-port="1" />
		<edge from-layer="164" from-port="2" to-layer="172" to-port="3" />
		<edge from-layer="165" from-port="0" to-layer="166" to-port="1" />
		<edge from-layer="166" from-port="2" to-layer="167" to-port="5" />
		<edge from-layer="167" from-port="6" to-layer="168" to-port="0" />
		<edge from-layer="168" from-port="2" to-layer="169" to-port="0" />
		<edge from-layer="169" from-port="2" to-layer="178" to-port="0" />
		<edge from-layer="170" from-port="0" to-layer="171" to-port="1" />
		<edge from-layer="171" from-port="2" to-layer="172" to-port="1" />
		<edge from-layer="172" from-port="6" to-layer="173" to-port="0" />
		<edge from-layer="173" from-port="2" to-layer="174" to-port="0" />
		<edge from-layer="174" from-port="2" to-layer="175" to-port="0" />
		<edge from-layer="175" from-port="1" to-layer="176" to-port="0" />
		<edge from-layer="176" from-port="2" to-layer="177" to-port="0" />
		<edge from-layer="177" from-port="2" to-layer="178" to-port="1" />
	</edges>
	<statistics>
		<layer>
			<name>DetectionOutput_</name>
			<min>-1.000000</min>
			<max>2.000000</max>
		</layer>
		<layer>
			<name>DetectionOutput_Reshape_conf_</name>
			<min>… 0.000000</min>
			<max>… 0.000001</max>
		</layer>
		<layer>
			<name>DetectionOutput_Reshape_loc_</name>
			<min>… -1.981845</min>
			<max>… -0.576771</max>
		</layer>
		<layer>
			<name>DetectionOutput_Reshape_priors_/Output_0/Data__const</name>
			<min>0.000000</min>
			<max>1.000000</max>
		</layer>
		<layer>
			<name>MobilenetV2/Conv/Conv2D</name>
			<min>-16.483740, -28.019835, -13.787020, -3.343729, -2.579668, -3.983462, -1.341100, -2.343716, -0.990392, -0.007449, -8.223255, -16.772352, -8.002090, -0.013020, -2.934644, -4.487239</min>
			<max>19.801394, 30.920383, 17.801910, 5.736620, 4.984770, 6.194578, -0.168031, 5.984308, 3.657722, 1.597326, 11.954486, 19.232164, 5.232416, 1.408267, 2.060810, 3.705638</max>
		</layer>
		<layer>
			<name>MobilenetV2/Conv/Relu6</name>
			<min>0.000000, 0.000000, 0.000000, 0.000000, 0.000000, 0.000000, 0.000000, 0.000000, 0.000000, 0.000000, 0.000000, 0.000000, 0.000000, 0.000000, 0.000000, 0.000000</min>
			<max>6.000000, 6.000000, 6.000000, 5.736620, 4.984770, 6.000000, 0.000000, 5.984308, 3.657722, 1.597326, 6.000000, 6.000000, 5.232416, 1.408267, 2.060810, 3.705638</max>
		</layer>
		<layer>
			<name>MobilenetV2/expanded_conv/add</name>
			<min>-3.234840, -6.181675, -2.137144, -3.699975, -6.029459, -3.709639, -12.461751, -3.300219, -7.314677, -9.500015, -3.891398, -7.210961, -4.784392, -4.944604, -5.893440, -11.760877</min>
			<max>9.645725, 8.520893, 6.555028, 5.854644, 6.777781, 6.631480, 7.398318, 6.802622, 10.553297, 15.106905, 9.829035, 10.774845, 5.492611, 7.980386, 7.590506, 10.607806</max>
		</layer>
		<layer>
			<name>MobilenetV2/expanded_conv/depthwise/Relu6</name>
			<min>0.000000, 0.000000, 0.000000, 0.000000, 0.000000, 0.000000, 0.061330, 0.000000, 0.000000, 0.000000, 0.000000, 0.000000, 0.000000, 0.000000, 0.000000, 0.000000</min>
			<max>0.686163, 4.190135, 2.092604, 3.165388, 6.000000, 6.000000, 0.061330, 6.000000, 6.000000, 6.000000, 6.000000, 2.816102, 6.000000, 6.000000, 6.000000, 1.426969</max>
		</layer>
		<layer>
			<name>MobilenetV2/expanded_conv/depthwise/depthwise</name>
			<min>-1.501983, -5.713450, -3.803892, -1.506905, -6.259279, -4.437639, 0.061330, -7.906556, -12.346009, -32.345291, -8.998841, -5.425854, -4.374271, -43.076164, -10.057875, -0.474673</min>
			<max>0.686163, 4.190135, 2.092604, 3.165388, 12.639944, 12.629685, 0.061330, 14.907790, 13.823304, 41.559723, 7.715456, 2.816102, 10.978738, 40.104553, 6.334301, 1.426969</max>
		</layer>
		<layer>
			<name>MobilenetV2/expanded_conv/project/Conv2D</name>
			<min>-3.234840, -6.239509, -2.224780, -3.930175, -7.538555, -4.368586, -12.461751, -3.301173, -7.554045, -10.237363, -4.330489, -7.352978, -4.965344, -5.475910, -5.893440, -11.760877</min>
			<max>3.878051, 2.861196, 0.639894, 2.403458, 6.406473, 3.337161, 7.398318, 1.996243, 8.074483, 14.452898, 6.041023, 5.087875, 2.295492, 7.047597, 7.590506, 8.481152</max>
		</layer>
		<layer>
			<name>MobilenetV2/expanded_conv_1/depthwise/Relu6</name>
			<min>… 0.000000</min>
			<max>… 0.976568</max>
		</layer>
		<layer>
			<name>MobilenetV2/expanded_conv_1/depthwise/depthwise</name>
			<min>… -2.722236</min>
			<max>… 0.976568</max>
		</layer>
		<layer>
			<name>MobilenetV2/expanded_conv_1/expand/Conv2D</name>
			<min>… -5.581682</min>
			<max>… 4.933667</max>
		</layer>
		<layer>
			<name>MobilenetV2/expanded_conv_1/expand/Relu6</name>
			<min>… 0.000000</min>
			<max>… 4.933667</max>
		</layer>
		<layer>
			<name>MobilenetV2/expanded_conv_1/project/Conv2D</name>
			<min>-3.658714, -7.155222, -3.275440, -4.252178, -4.500450, -6.382262, -4.215329, -2.564821, -4.230072, -8.966546, -7.116437, -5.123382, -3.608178, -4.873864, -3.702544, -4.163411</min>
			<max>8.345477, 4.246639, 12.054664, 7.375448, 4.926734, 8.715901, 3.485008, 11.657481, 2.454559, 3.101994, 8.258176, 9.540956, 6.935785, 4.846342, 11.073031, 7.151552</max>
		</layer>
		<layer>
			<name>MobilenetV2/expanded_conv_10/depthwise/Relu6</name>
			<min>… 0.000000</min>
			<max>… 0.570932</max>
		</layer>
		<layer>
			<name>MobilenetV2/expanded_conv_10/depthwise/depthwise</name>
			<min>… -6.851225</min>
			<max>… 0.570932</max>
		</layer>
		<layer>
			<name>MobilenetV2/expanded_conv_10/expand/Conv2D</name>
			<min>… -0.882351</min>
			<max>… 6.394277</max>
		</layer>
		<layer>
			<name>MobilenetV2/expanded_conv_10/expand/Relu6</name>
			<min>… 0.000000</min>
			<max>… 6.000000</max>
		</layer>
		<layer>
			<name>MobilenetV2/expanded_conv_10/project/Conv2D</name>
			<min>… -3.101151</min>
			<max>… 3.317914</max>
		</layer>
		<layer>
			<name>MobilenetV2/expanded_conv_11/add</name>
			<min>… -1.643942</min>
			<max>… 5.632300</max>
		</layer>
		<layer>
			<name>MobilenetV2/expanded_conv_11/depthwise/Relu6</name>
			<min>… 0.043680</min>
			<max>… 1.638915</max>
		</layer>
		<layer>
			<name>MobilenetV2/expanded_conv_11/depthwise/depthwise</name>
			<min>… 0.043680</min>
			<max>… 1.638915</max>
		</layer>
		<layer>
			<name>MobilenetV2/expanded_conv_11/expand/Conv2D</name>
			<min>… -2.989284</min>
			<max>… 1.480210</max>
		</layer>
		<layer>
			<name>MobilenetV2/expanded_conv_11/expand/Relu6</name>
			<min>… 0.000000</min>
			<max>… 1.480210</max>
		</layer>
		<layer>
			<name>MobilenetV2/expanded_conv_11/project/Conv2D</name>
			<min>… -0.199798</min>
			<max>… 2.912208</max>
		</layer>
		<layer>
			<name>MobilenetV2/expanded_conv_12/add</name>
			<min>… -4.044190</min>
			<max>… 3.304645</max>
		</layer>
		<layer>
			<name>MobilenetV2/expanded_conv_12/depthwise/Relu6</name>
			<min>… 0.000000</min>
			<max>… 1.693885</max>
		</layer>
		<layer>
			<name>MobilenetV2/expanded_conv_12/depthwise/depthwise</name>
			<min>… -1.152400</min>
			<max>… 1.693885</max>
		</layer>
		<layer>
			<name>MobilenetV2/expanded_conv_12/expand/Conv2D</name>
			<min>… -1.807177</min>
			<max>… 2.482041</max>
		</layer>
		<layer>
			<name>MobilenetV2/expanded_conv_12/expand/Relu6</name>
			<min>… 0.000000</min>
			<max>… 2.482041</max>
		</layer>
		<layer>
			<name>MobilenetV2/expanded_conv_12/project/Conv2D</name>
			<min>… -3.770370</min>
			<max>… 1.316792</max>
		</layer>
		<layer>
			<name>MobilenetV2/expanded_conv_13/depthwise/Relu6</name>
			<min>… 0.000000</min>
			<max>… 3.213361</max>
		</layer>
		<layer>
			<name>MobilenetV2/expanded_conv_13/depthwise/depthwise</name>
			<min>… -1.543959</min>
			<max>… 3.213361</max>
		</layer>
		<layer>
			<name>MobilenetV2/expanded_conv_13/expand/Conv2D</name>
			<min>… -1.340397</min>
			<max>… 1.277438</max>
		</layer>
		<layer>
			<name>MobilenetV2/expanded_conv_13/expand/Relu6</name>
			<min>… 0.000000</min>
			<max>… 1.277438</max>
		</layer>
		<layer>
			<name>MobilenetV2/expanded_conv_13/project/Conv2D</name>
			<min>… -1.603559</min>
			<max>… 2.199173</max>
		</layer>
		<layer>
			<name>MobilenetV2/expanded_conv_14/add</name>
			<min>… -2.912631</min>
			<max>… 3.412520</max>
		</layer>
		<layer>
			<name>MobilenetV2/expanded_conv_14/depthwise/Relu6</name>
			<min>… 0.000000</min>
			<max>… 2.390234</max>
		</layer>
		<layer>
			<name>MobilenetV2/expanded_conv_14/depthwise/depthwise</name>
			<min>… -2.347832</min>
			<max>… 2.390234</max>
		</layer>
		<layer>
			<name>MobilenetV2/expanded_conv_14/expand/Conv2D</name>
			<min>… -0.390465</min>
			<max>… 2.822125</max>
		</layer>
		<layer>
			<name>MobilenetV2/expanded_conv_14/expand/Relu6</name>
			<min>… 0.000000</min>
			<max>… 2.822125</max>
		</layer>
		<layer>
			<name>MobilenetV2/expanded_conv_14/project/Conv2D</name>
			<min>… -2.950200</min>
			<max>… 2.444005</max>
		</layer>
		<layer>
			<name>MobilenetV2/expanded_conv_15/add</name>
			<min>… -6.598892</min>
			<max>… 6.558628</max>
		</layer>
		<layer>
			<name>MobilenetV2/expanded_conv_15/depthwise/Relu6</name>
			<min>… 0.000000</min>
			<max>… 2.397519</max>
		</layer>
		<layer>
			<name>MobilenetV2/expanded_conv_15/depthwise/depthwise</name>
			<min>… -3.575749</min>
			<max>… 2.397519</max>
		</layer>
		<layer>
			<name>MobilenetV2/expanded_conv_15/expand/Conv2D</name>
			<min>… -4.279882</min>
			<max>… 2.347392</max>
		</layer>
		<layer>
			<name>MobilenetV2/expanded_conv_15/expand/Relu6</name>
			<min>… 0.000000</min>
			<max>… 2.347392</max>
		</layer>
		<layer>
			<name>MobilenetV2/expanded_conv_15/project/Conv2D</name>
			<min>… -6.217462</min>
			<max>… 3.728446</max>
		</layer>
		<layer>
			<name>MobilenetV2/expanded_conv_16/depthwise/Relu6</name>
			<min>… 0.000000</min>
			<max>… 6.000000</max>
		</layer>
		<layer>
			<name>MobilenetV2/expanded_conv_16/depthwise/depthwise</name>
			<min>… -1.017567</min>
			<max>… 13.983369</max>
		</layer>
		<layer>
			<name>MobilenetV2/expanded_conv_16/expand/Conv2D</name>
			<min>… -8.110958</min>
			<max>… 15.577871</max>
		</layer>
		<layer>
			<name>MobilenetV2/expanded_conv_16/expand/Relu6</name>
			<min>… 0.000000</min>
			<max>… 6.000000</max>
		</layer>
		<layer>
			<name>MobilenetV2/expanded_conv_16/project/Conv2D</name>
			<min>… -1.362689</min>
			<max>… 3.181557</max>
		</layer>
		<layer>
			<name>MobilenetV2/expanded_conv_2/add</name>
			<min>-14.068493, -11.029242, -8.359206, -10.218706, -7.552937, -7.401918, -10.708989, -2.702352, -20.120384, -12.814234, -11.764881, -14.909529, -6.707437, -9.888678, -2.846550, -9.617885</min>
			<max>14.585524, 8.430414, 11.403423, 9.188234, 11.846889, 14.921137, 8.890764, 11.897301, 8.324855, 5.533179, 13.302885, 10.800798, 10.776405, 13.205663, 14.765358, 8.763132</max>
		</layer>
		<layer>
			<name>MobilenetV2/expanded_conv_2/depthwise/Relu6</name>
			<min>… 0.000000</min>
			<max>… 3.505958</max>
		</layer>
		<layer>
			<name>MobilenetV2/expanded_conv_2/depthwise/depthwise</name>
			<min>… -1.546166</min>
			<max>… 3.505958</max>
		</layer>
		<layer>
			<name>MobilenetV2/expanded_conv_2/expand/Conv2D</name>
			<min>… -5.815822</min>
			<max>… 2.943845</max>
		</layer>
		<layer>
			<name>MobilenetV2/expanded_conv_2/expand/Relu6</name>
			<min>… 0.000000</min>
			<max>… 2.943845</max>
		</layer>
		<layer>
			<name>MobilenetV2/expanded_conv_2/project/Conv2D</name>
			<min>-13.389101, -6.400329, -7.601605, -8.579695, -6.416306, -3.265837, -9.136568, -3.578278, -18.181595, -9.125829, -7.648669, -13.276868, -6.021946, -7.247210, -2.568044, -7.695166</min>
			<max>9.905748, 7.930170, 5.021504, 5.269434, 8.998111, 9.116584, 8.418968, 3.482709, 8.600127, 5.253890, 9.798857, 6.340916, 6.611400, 11.904541, 6.442478, 5.907611</max>
		</layer>
		<layer>
			<name>MobilenetV2/expanded_conv_3/depthwise/Relu6</name>
			<min>… 0.092600</min>
			<max>… 0.798852</max>
		</layer>
		<layer>
			<name>MobilenetV2/expanded_conv_3/depthwise/depthwise</name>
			<min>… 0.092600</min>
			<max>… 0.798852</max>
		</layer>
		<layer>
			<name>MobilenetV2/expanded_conv_3/expand/Conv2D</name>
			<min>… -8.303051</min>
			<max>… 1.127408</max>
		</layer>
		<layer>
			<name>MobilenetV2/expanded_conv_3/expand/Relu6</name>
			<min>… 0.000000</min>
			<max>… 1.127408</max>
		</layer>
		<layer>
			<name>MobilenetV2/expanded_conv_3/project/Conv2D</name>
			<min>-5.302572, -9.664230, -3.334905, -4.182355, -2.644178, -1.582059, -3.710276, -6.125044, -7.152204, -6.678800, -3.547888, -5.093311, -4.924661, -4.453580, -6.331905, -2.660701</min>
			<max>4.096437, 6.939625, 3.539651, 5.188016, 7.480107, 6.893141, 6.303620, 5.047044, 1.932375, 2.825548, 3.959570, 4.387052, 3.183149, 2.662402, 3.005294, 3.586589</max>
		</layer>
		<layer>
			<name>MobilenetV2/expanded_conv_4/add</name>
			<min>-8.601629, -11.940973, -8.342023, -7.590311, -3.564369, -4.546787, -3.765611, -7.534193, -9.057692, -7.967047, -6.224247, -8.620571, -5.542537, -4.746262, -6.310484, -8.719250</min>
			<max>5.533131, 8.650173, 6.202075, 5.199593, 10.319290, 6.840828, 6.090485, 8.985723, 3.860170, 6.063125, 5.488916, 6.591251, 4.818681, 3.626104, 2.744500, 5.723042</max>
		</layer>
		<layer>
			<name>MobilenetV2/expanded_conv_4/depthwise/Relu6</name>
			<min>… 0.000000</min>
			<max>… 6.000000</max>
		</layer>
		<layer>
			<name>MobilenetV2/expanded_conv_4/depthwise/depthwise</name>
			<min>… -7.277409</min>
			<max>… 6.843706</max>
		</layer>
		<layer>
			<name>MobilenetV2/expanded_conv_4/expand/Conv2D</name>
			<min>… -0.426689</min>
			<max>… 3.248689</max>
		</layer>
		<layer>
			<name>MobilenetV2/expanded_conv_4/expand/Relu6</name>
			<min>… 0.000000</min>
			<max>… 3.248689</max>
		</layer>
		<layer>
			<name>MobilenetV2/expanded_conv_4/project/Conv2D</name>
			<min>-6.436038, -4.155894, -7.529707, -5.965477, -2.485960, -5.404967, -2.641990, -3.518995, -2.916554, -4.123067, -4.453065, -6.477165, -3.093955, -2.560339, -2.617428, -8.107856</min>
			<max>2.697263, 6.510537, 4.419732, 3.163394, 4.321823, 2.436161, 3.285734, 5.887373, 4.211090, 5.588230, 3.648126, 3.635570, 3.913523, 2.856199, 1.931569, 3.347454</max>
		</layer>
		<layer>
			<name>MobilenetV2/expanded_conv_5/add</name>
			<min>-14.869918, -12.173321, -8.580250, -8.752162, -5.224753, -2.826343, -3.022257, -7.921918, -10.081881, -16.324154, -6.162805, -9.381344, -7.426041, -8.420014, -8.314002, -11.414418</min>
			<max>6.471264, 10.513092, 7.466281, 8.160816, 16.137739, 9.517099, 7.954804, 13.668709, 8.180326, 5.845279, 7.797971, 10.331144, 7.028628, 6.332577, 4.742223, 15.342312</max>
		</layer>
		<layer>
			<name>MobilenetV2/expanded_conv_5/depthwise/Relu6</name>
			<min>… 0.000000</min>
			<max>… 6.000000</max>
		</layer>
		<layer>
			<name>MobilenetV2/expanded_conv_5/depthwise/depthwise</name>
			<min>… -7.598009</min>
			<max>… 8.712717</max>
		</layer>
		<layer>
			<name>MobilenetV2/expanded_conv_5/expand/Conv2D</name>
			<min>… -3.386437</min>
			<max>… 2.538777</max>
		</layer>
		<layer>
			<name>MobilenetV2/expanded_conv_5/expand/Relu6</name>
			<min>… 0.000000</min>
			<max>… 2.538777</max>
		</layer>
		<layer>
			<name>MobilenetV2/expanded_conv_5/project/Conv2D</name>
			<min>-8.291928, -3.829423, -5.235893, -4.643106, -3.887051, -1.781399, -1.626394, -2.837882, -2.528422, -10.452759, -2.698482, -6.684872, -5.390059, -7.277459, -5.127062, -7.014031</min>
			<max>5.856296, 6.742294, 5.278227, 5.980650, 7.261492, 4.517112, 5.472831, 6.078699, 6.061683, 3.755808, 4.999962, 8.325548, 5.014108, 5.641174, 4.252547, 13.180727</max>
		</layer>
		<layer>
			<name>MobilenetV2/expanded_conv_6/depthwise/Relu6</name>
			<min>… 0.000000</min>
			<max>… 6.000000</max>
		</layer>
		<layer>
			<name>MobilenetV2/expanded_conv_6/depthwise/depthwise</name>
			<min>… -1.651825</min>
			<max>… 7.143835</max>
		</layer>
		<layer>
			<name>MobilenetV2/expanded_conv_6/expand/Conv2D</name>
			<min>… -4.054534</min>
			<max>… 6.441744</max>
		</layer>
		<layer>
			<name>MobilenetV2/expanded_conv_6/expand/Relu6</name>
			<min>… 0.000000</min>
			<max>… 6.000000</max>
		</layer>
		<layer>
			<name>MobilenetV2/expanded_conv_6/project/Conv2D</name>
			<min>… -9.561562</min>
			<max>… 4.571176</max>
		</layer>
		<layer>
			<name>MobilenetV2/expanded_conv_7/add</name>
			<min>… -10.812634</min>
			<max>… 7.122318</max>
		</layer>
		<layer>
			<name>MobilenetV2/expanded_conv_7/depthwise/Relu6</name>
			<min>… 0.000000</min>
			<max>… 1.006337</max>
		</layer>
		<layer>
			<name>MobilenetV2/expanded_conv_7/depthwise/depthwise</name>
			<min>… -0.836385</min>
			<max>… 1.006337</max>
		</layer>
		<layer>
			<name>MobilenetV2/expanded_conv_7/expand/Conv2D</name>
			<min>… -2.633714</min>
			<max>… 1.179458</max>
		</layer>
		<layer>
			<name>MobilenetV2/expanded_conv_7/expand/Relu6</name>
			<min>… 0.000000</min>
			<max>… 1.179458</max>
		</layer>
		<layer>
			<name>MobilenetV2/expanded_conv_7/project/Conv2D</name>
			<min>… -3.119093</min>
			<max>… 6.384162</max>
		</layer>
		<layer>
			<name>MobilenetV2/expanded_conv_8/add</name>
			<min>… -12.435452</min>
			<max>… 7.614902</max>
		</layer>
		<layer>
			<name>MobilenetV2/expanded_conv_8/depthwise/Relu6</name>
			<min>… 0.000000</min>
			<max>… 4.893426</max>
		</layer>
		<layer>
			<name>MobilenetV2/expanded_conv_8/depthwise/depthwise</name>
			<min>… -2.441792</min>
			<max>… 4.893426</max>
		</layer>
		<layer>
			<name>MobilenetV2/expanded_conv_8/expand/Conv2D</name>
			<min>… -3.105632</min>
			<max>… 4.219240</max>
		</layer>
		<layer>
			<name>MobilenetV2/expanded_conv_8/expand/Relu6</name>
			<min>… 0.000000</min>
			<max>… 4.219240</max>
		</layer>
		<layer>
			<name>MobilenetV2/expanded_conv_8/project/Conv2D</name>
			<min>… -3.639759</min>
			<max>… 1.992314</max>
		</layer>
		<layer>
			<name>MobilenetV2/expanded_conv_9/add</name>
			<min>… -12.489281</min>
			<max>… 9.325336</max>
		</layer>
		<layer>
			<name>MobilenetV2/expanded_conv_9/depthwise/Relu6</name>
			<min>… 0.000000</min>
			<max>… 3.105016</max>
		</layer>
		<layer>
			<name>MobilenetV2/expanded_conv_9/depthwise/depthwise</name>
			<min>… -0.305629</min>
			<max>… 3.105016</max>
		</layer>
		<layer>
			<name>MobilenetV2/expanded_conv_9/expand/Conv2D</name>
			<min>… -2.547357</min>
			<max>… 1.440687</max>
		</layer>
		<layer>
			<name>MobilenetV2/expanded_conv_9/expand/Relu6</name>
			<min>… 0.000000</min>
			<max>… 1.440687</max>
		</layer>
		<layer>
			<name>MobilenetV2/expanded_conv_9/project/Conv2D</name>
			<min>… -2.989067</min>
			<max>… 3.738075</max>
		</layer>
		<layer>
			<name>Mul_/Fused_Mul_/FusedScaleShift_</name>
			<min>-1.000000, -1.000000, -1.000000</min>
			<max>1.000000, 1.000000, 1.000000</max>
		</layer>
		<layer>
			<name>Placeholder</name>
			<min>0.000000, 0.000000, 0.000000</min>
			<max>255.000000, 255.000000, 255.000000</max>
		</layer>
		<layer>
			<name>SSD/concat_reshape_softmax/Reshape</name>
			<min>6.326663, -7.385139, -7.890745</min>
			<max>12.299481, -0.443613, -1.356139</max>
		</layer>
		<layer>
			<name>SSD/concat_reshape_softmax/Softmax</name>
			<min>0.999679, 0.000000, 0.000000</min>
			<max>1.000000, 0.000258, 0.000058</max>
		</layer>
		<layer>
			<name>SSD/concat_reshape_softmax/mbox_conf</name>
			<min>… -9.973310</min>
			<max>… -6.566187</max>
		</layer>
		<layer>
			<name>SSD/concat_reshape_softmax/mbox_conf_final</name>
			<min>0.000000</min>
			<max>1.000000</max>
		</layer>
		<layer>
			<name>SSD/concat_reshape_softmax/mbox_conf_logits</name>
			<min>-18.106529</min>
			<max>22.531393</max>
		</layer>
		<layer>
			<name>SSD/concat_reshape_softmax/mbox_loc</name>
			<min>… -1.981845</min>
			<max>… -0.576771</max>
		</layer>
		<layer>
			<name>SSD/concat_reshape_softmax/mbox_loc_final</name>
			<min>-9.755875</min>
			<max>6.904938</max>
		</layer>
		<layer>
			<name>SSD/ssd_head/Flatten/flatten/Reshape</name>
			<min>… -4.669661</min>
			<max>… -1.841243</max>
		</layer>
		<layer>
			<name>SSD/ssd_head/Flatten_1/flatten/Reshape</name>
			<min>… -5.210866</min>
			<max>… -2.295080</max>
		</layer>
		<layer>
			<name>SSD/ssd_head/layer_14/output_mbox_conf/Conv2D</name>
			<min>-0.702205, -9.538371, -8.676861, 0.214062, -9.539787, -9.038706</min>
			<max>14.838268, 1.011649, 6.832138, 13.547988, 0.660320, 6.951853</max>
		</layer>
		<layer>
			<name>SSD/ssd_head/layer_14/output_mbox_conf/Conv2D/Transpose</name>
			<min>… -7.780712</min>
			<max>… 12.472410</max>
		</layer>
		<layer>
			<name>SSD/ssd_head/layer_14/output_mbox_loc/Conv2D</name>
			<min>-3.931347, -6.896442, -9.723949, -4.366550, -3.416209, -5.155641, -8.173056, -8.420365</min>
			<max>4.179564, 6.333584, 1.622593, 2.319016, 3.888221, 5.212071, 5.064210, 2.659433</max>
		</layer>
		<layer>
			<name>SSD/ssd_head/layer_14/output_mbox_loc/Conv2D/Transpose</name>
			<min>… -6.528590</min>
			<max>… 5.204639</max>
		</layer>
		<layer>
			<name>SSD/ssd_head_1/Flatten/flatten/Reshape</name>
			<min>… -0.734027</min>
			<max>… 0.904322</max>
		</layer>
		<layer>
			<name>SSD/ssd_head_1/Flatten_1/flatten/Reshape</name>
			<min>… -4.610100</min>
			<max>… -3.065125</max>
		</layer>
		<layer>
			<name>SSD/ssd_head_1/layer_18/output_mbox_conf/Conv2D</name>
			<min>3.842482, -18.106529, -9.154795, 2.438764, -15.190046, -10.275205, 4.743912, -10.550585, -8.991890</min>
			<max>15.614497, 0.582521, 1.889737, 18.336863, 6.844701, -1.982656, 16.187160, 0.554301, -2.276187</max>
		</layer>
		<layer>
			<name>SSD/ssd_head_1/layer_18/output_mbox_conf/Conv2D/Transpose</name>
			<min>-8.692271, -9.760057, -15.054287, -17.393677, -17.525654, -17.985817, -16.303286, -13.532722, -9.581899, -7.216438</min>
			<max>10.653109, 14.232069, 16.312996, 16.782167, 16.918831, 17.452860, 16.193018, 13.913767, 11.448661, 10.199354</max>
		</layer>
		<layer>
			<name>SSD/ssd_head_1/layer_18/output_mbox_loc/Conv2D</name>
			<min>-6.822102, -3.629755, -4.543334, -7.219608, -5.255815, -3.693639, -5.763554, -2.645108, -4.236946, -5.686094, -5.334775, -2.501858</min>
			<max>6.873081, 3.777639, 4.667062, 3.262609, 6.061637, 2.722852, 5.416696, 3.477189, 3.750029, 1.970957, 3.499498, 5.472413</max>
		</layer>
		<layer>
			<name>SSD/ssd_head_1/layer_18/output_mbox_loc/Conv2D/Transpose</name>
			<min>-4.991963, -6.055060, -6.040036, -6.086728, -6.393448, -6.723641, -6.975946, -6.420365, -6.679170, -6.445041</min>
			<max>3.891648, 4.858444, 5.976895, 6.148051, 5.926147, 5.849190, 5.689024, 5.049789, 3.660478, 2.215932</max>
		</layer>
		<layer>
			<name>SSD/ssd_head_2/Flatten/flatten/Reshape</name>
			<min>… -0.640620</min>
			<max>… 1.724740</max>
		</layer>
		<layer>
			<name>SSD/ssd_head_2/Flatten_1/flatten/Reshape</name>
			<min>… -5.943721</min>
			<max>… -3.695683</max>
		</layer>
		<layer>
			<name>SSD/ssd_head_2/feature_map_1_mbox_conf/Conv2D</name>
			<min>0.442544, -11.894460, -10.485748, -6.120645, -8.198564, -12.235924, -0.090535, -10.946512, -10.422190</min>
			<max>21.185719, 7.965883, -3.756963, 16.599661, 15.615675, -3.552835, 20.584442, 10.451476, -3.491906</max>
		</layer>
		<layer>
			<name>SSD/ssd_head_2/feature_map_1_mbox_conf/Conv2D/Transpose</name>
			<min>-9.174015, -12.479933, -11.894460, -10.760729, -7.315138</min>
			<max>13.561777, 19.853506, 19.291370, 18.439775, 11.912877</max>
		</layer>
		<layer>
			<name>SSD/ssd_head_2/feature_map_1_mbox_loc/Conv2D</name>
			<min>-3.961440, -4.437248, -2.136321, -2.325835, -3.772603, -3.903293, -2.954852, -2.098512, -4.464199, -3.667472, -1.837696, -2.284018</min>
			<max>3.785521, 3.220099, 2.920436, 3.347854, 3.866692, 4.038329, 2.480631, 3.175755, 4.354740, 2.750177, 3.970024, 2.790401</max>
		</layer>
		<layer>
			<name>SSD/ssd_head_2/feature_map_1_mbox_loc/Conv2D/Transpose</name>
			<min>-2.877640, -4.124202, -4.630265, -3.996595, -3.640739</min>
			<max>3.599779, 4.252604, 4.211549, 3.356602, 2.392293</max>
		</layer>
		<layer>
			<name>SSD/ssd_head_3/Flatten/flatten/Reshape</name>
			<min>… -0.826039</min>
			<max>… 0.883541</max>
		</layer>
		<layer>
			<name>SSD/ssd_head_3/Flatten_1/flatten/Reshape</name>
			<min>… -6.085296</min>
			<max>… -3.798684</max>
		</layer>
		<layer>
			<name>SSD/ssd_head_3/feature_map_2_mbox_conf/Conv2D</name>
			<min>-5.275210, -6.387474, -11.171982, -3.182274, -7.213448, -11.155205</min>
			<max>20.163877, 13.147882, -3.139016, 21.630911, 12.543637, -3.771806</max>
		</layer>
		<layer>
			<name>SSD/ssd_head_3/feature_map_2_mbox_conf/Conv2D/Transpose</name>
			<min>-9.485710, -11.515538, -9.185290</min>
			<max>14.434935, 21.750715, 13.610816</max>
		</layer>
		<layer>
			<name>SSD/ssd_head_3/feature_map_2_mbox_loc/Conv2D</name>
			<min>-3.363990, -3.112645, -2.933621, -2.312967, -2.883244, -3.814918, -3.043090, -2.063625</min>
			<max>3.638690, 3.170109, 2.111073, 2.062600, 3.625650, 3.739872, 1.700731, 2.918633</max>
		</layer>
		<layer>
			<name>SSD/ssd_head_3/feature_map_2_mbox_loc/Conv2D/Transpose</name>
			<min>-2.936367, -3.814918, -2.338162</min>
			<max>3.735527, 3.784177, 1.996813</max>
		</layer>
		<layer>
			<name>SSD/ssd_head_4/Flatten/flatten/Reshape</name>
			<min>… -1.918209</min>
			<max>… 0.338868</max>
		</layer>
		<layer>
			<name>SSD/ssd_head_4/Flatten_1/flatten/Reshape</name>
			<min>… -6.314124</min>
			<max>… -3.606430</max>
		</layer>
		<layer>
			<name>SSD/ssd_head_4/feature_map_3_mbox_conf/Conv2D</name>
			<min>-3.988856, -6.374256, -9.321779, -3.232746, -5.197037, -9.393776</min>
			<max>13.014318, 9.259651, -3.990427, 12.741181, 9.146556, -3.557841</max>
		</layer>
		<layer>
			<name>SSD/ssd_head_4/feature_map_3_mbox_conf/Conv2D/Transpose</name>
			<min>-9.714519, -7.529455</min>
			<max>13.551308, 11.651079</max>
		</layer>
		<layer>
			<name>SSD/ssd_head_4/feature_map_3_mbox_loc/Conv2D</name>
			<min>-2.640709, -3.020700, -2.975740, -1.575899, -3.128538, -2.718291, -2.358002, -2.014320</min>
			<max>1.698294, 2.740013, 1.242729, 1.890913, 2.456883, 2.723119, 1.818035, 1.164565</max>
		</layer>
		<layer>
			<name>SSD/ssd_head_4/feature_map_3_mbox_loc/Conv2D/Transpose</name>
			<min>-3.140975, -3.057411</min>
			<max>2.894872, 1.678943</max>
		</layer>
		<layer>
			<name>SSD/ssd_head_5/Flatten/flatten/Reshape</name>
			<min>-1.954826, -2.397844, -3.019488, -1.852570, -1.960696, -1.925271, -3.208631, -1.718813, -1.378263, -1.527191, -3.292917, -1.981845</min>
			<max>2.060494, 0.591385, -0.545737, 0.537768, 1.340246, 0.522721, -0.910838, -0.045378, 1.505786, 0.406276, -1.292986, -0.576771</max>
		</layer>
		<layer>
			<name>SSD/ssd_head_5/Flatten_1/flatten/Reshape</name>
			<min>3.950445, -3.363048, -8.832637, 6.890076, -5.416871, -11.426494, 6.333715, -7.433767, -9.973310</min>
			<max>14.792857, 3.964711, -5.939679, 16.239988, 1.575661, -6.623096, 13.508999, -1.390565, -6.566187</max>
		</layer>
		<layer>
			<name>SSD/ssd_head_5/feature_map_4_mbox_conf/Conv2D</name>
			<min>3.950445, -3.363048, -8.832637, 6.890076, -5.416871, -11.426494, 6.333715, -7.433767, -9.973310</min>
			<max>14.792857, 3.964711, -5.939679, 16.239988, 1.575661, -6.623096, 13.508999, -1.390565, -6.566187</max>
		</layer>
		<layer>
			<name>SSD/ssd_head_5/feature_map_4_mbox_conf/Conv2D/Transpose</name>
			<min>-11.426494</min>
			<max>16.239988</max>
		</layer>
		<layer>
			<name>SSD/ssd_head_5/feature_map_4_mbox_loc/Conv2D</name>
			<min>-1.954826, -2.397844, -3.019488, -1.852570, -1.960696, -1.925271, -3.208631, -1.718813, -1.378263, -1.527191, -3.292917, -1.981845</min>
			<max>2.060494, 0.591385, -0.545737, 0.537768, 1.340246, 0.522721, -0.910838, -0.045378, 1.505786, 0.406276, -1.292986, -0.576771</max>
		</layer>
		<layer>
			<name>SSD/ssd_head_5/feature_map_4_mbox_loc/Conv2D/Transpose</name>
			<min>-3.399636</min>
			<max>2.112453</max>
		</layer>
		<layer>
			<name>features/feature_map_1/Conv2D</name>
			<min>… -4.080490</min>
			<max>… 0.088286</max>
		</layer>
		<layer>
			<name>features/feature_map_1/Relu</name>
			<min>… -0.000000</min>
			<max>… 0.088286</max>
		</layer>
		<layer>
			<name>features/feature_map_2/Conv2D</name>
			<min>… -4.844409</min>
			<max>… 0.116121</max>
		</layer>
		<layer>
			<name>features/feature_map_2/Relu</name>
			<min>… -0.000000</min>
			<max>… 0.116121</max>
		</layer>
		<layer>
			<name>features/feature_map_3/Conv2D</name>
			<min>… -1.457099</min>
			<max>… 3.637299</max>
		</layer>
		<layer>
			<name>features/feature_map_3/Relu</name>
			<min>… -0.000000</min>
			<max>… 3.637299</max>
		</layer>
		<layer>
			<name>features/feature_map_4/Conv2D</name>
			<min>… 4.255868</min>
			<max>… 12.787804</max>
		</layer>
		<layer>
			<name>features/feature_map_4/Relu</name>
			<min>… 4.255868</min>
			<max>… 12.787804</max>
		</layer>
		<layer>
			<name>features/intermediate_1/Conv2D</name>
			<min>… -4.236918</min>
			<max>… 2.325779</max>
		</layer>
		<layer>
			<name>features/intermediate_1/Relu</name>
			<min>… -0.000000</min>
			<max>… 2.325779</max>
		</layer>
		<layer>
			<name>features/intermediate_2/Conv2D</name>
			<min>… -1.319232</min>
			<max>… 6.339149</max>
		</layer>
		<layer>
			<name>features/intermediate_2/Relu</name>
			<min>… -0.000000</min>
			<max>… 6.339149</max>
		</layer>
		<layer>
			<name>features/intermediate_3/Conv2D</name>
			<min>… -2.269272</min>
			<max>… 4.752728</max>
		</layer>
		<layer>
			<name>features/intermediate_3/Relu</name>
			<min>… -0.000000</min>
			<max>… 4.752728</max>
		</layer>
		<layer>
			<name>features/intermediate_4/Conv2D</name>
			<min>… -1.202429</min>
			<max>… 6.679054</max>
		</layer>
		<layer>
			<name>features/intermediate_4/Relu</name>
			<min>… -0.000000</min>
			<max>… 6.679054</max>
		</layer>
	</statistics>
</net>
